checkpoints/ddqn_final_state.pth (torch, 688779 bytes, 8 tensors)

fc.0.weight f4 [512, 12]
000000 fe 96 40 3e 25 c3 a1 be eb 25 12 be fe c9 76 be
       0.18807599 -0.31594196 -0.14272277 -0.24100491
000010 22 d8 35 3e 22 d5 50 3e b3 2e 9f 3d 9a ef a6 3e
       0.1775823 0.20393804 0.07772579 0.32604676
000020 53 74 7c 3e 37 4f 99 3d 0e 10 d5 bd 42 c1 3e 3e
       0.24653749 0.07485812 -0.10403453 0.1862841
000030 74 34 43 3e 98 27 a1 3c c3 54 c8 3e 8d f2 b3 3e
       0.19062978 0.0196722 0.39127168 0.3514599
000040 91 3a 47 bd 3a c4 ae 3e ce 08 cd 3e b8 ff 46 3e
       -0.048639838 0.34134084 0.4004578 0.19433486
000050 5b 18 65 3f 98 d2 bf 3e 1b 61 cd bd d9 58 0a bf
       0.8949029 0.37465358 -0.10028287 -0.5404182
000060 e0 0d 9b 3e 17 a3 c7 3d 41 50 2b be 3a f9 d3 be
       0.30284023 0.09747904 -0.16729833 -0.41401082
000070 79 5f b5 3d 1d 0f 1c 3d 41 49 6b 3e da 4f 66 be
       0.088561006 0.03810035 0.22977163 -0.22491398
000080 e1 3b 03 3f b0 3a 1a 3f d3 83 e8 be 4e 5a 3d 3e
       0.5126324 0.602458 -0.45413074 0.1849148
000090 4d 4b 9f bf b6 7e 2e 3d 37 2d a3 3d 94 54 4d 3e
       -1.2444855 0.04260131 0.079676084 0.20051795
0000a0 a9 23 b9 bf 8d 26 1c c0 3c 8c 83 3d d1 b0 99 be
       -1.4464008 -2.439853 0.06423232 -0.30017713
0000b0 6d 92 65 3e 38 c1 02 3f 04 b6 1b 3f 9b a1 89 3e
       0.22419138 0.5107608 0.6082461 0.26881108
0000c0 66 8a 4d bd 55 0b b5 3c 5a 38 15 3e ed 6b db 3e
       -0.050180815 0.02210013 0.14572278 0.42855778
0000d0 55 65 f7 3e c5 8b 25 be eb 66 0f be 42 3f 4d bd
       0.48319498 -0.16166599 -0.14004104 -0.050109155
0000e0 fb 91 fb bd 51 e2 6c 3f 38 b0 48 be cb 73 e0 be
       -0.12283703 0.9253283 -0.19598472 -0.43838343
0000f0 40 15 47 3d fb 56 b2 3e 91 26 6f be 81 4e 88 3e
       0.04860425 0.34831986 -0.23354556 0.26622394
000100 65 e2 dd be fb 9b 6a 3e 89 10 42 3e fc 1c a6 3c
       -0.43336788 0.22911064 0.1895162 0.020277493
000110 b2 23 58 bf 72 7b 17 bf ba aa 67 bd 9e 26 a8 bd
       -0.84429467 -0.5917274 -0.056559302 -0.08210491
000120 32 20 60 3e 15 38 c8 be cf ef b4 3e 9a 3d c9 3e
       0.21887282 -0.39105287 0.3533921 0.3930481
000130 77 dd 1c 3d 21 4b dc 3d 8d 89 de 3d 1c d3 90 3d
       0.038297143 0.10756517 0.108660795 0.07071516
000140 f2 9c c0 be 51 56 9e be 3f 03 2b 3e 3a ef b5 bd
       -0.3761974 -0.3092523 0.16700457 -0.088835195
000150 f0 4d 05 be 9f 65 a5 bb 2d 77 7d 3e d5 a7 f0 bd
       -0.13018012 -0.0050475146 0.24752493 -0.117507614
000160 b2 fc b3 be d1 78 ff be de 3f 9c bf 36 4c 08 be
       -0.3515373 -0.49896863 -1.2206991 -0.13310322
000170 fd d8 9f 3a 4d 07 84 bf 2e 65 db be 54 95 9a 3c
       0.0012195405 -1.0314728 -0.4285063 0.018870033
000180 07 5f 48 3d d5 dd af 3e 23 cb 27 3e 68 48 33 be
       0.04891875 0.34348932 0.16386084 -0.1750809
000190 b5 8a 9a bd 58 06 9e be 34 20 d1 3d f0 9e 0b bf
       -0.075459875 -0.30864215 0.102112204 -0.54539394
0001a0 49 86 05 bd 25 91 bb 3d eb 83 16 3e e7 c0 9c 3e
       -0.032598767 0.091585435 0.1469876 0.30615923
0001b0 e3 49 4a 3d 3a da a0 be bd 7e 95 bb d3 f1 10 3a
       0.04938687 -0.31416494 -0.0045622275 0.00055291987
0001c0 9b 98 92 3e 41 8d 0d 3e 08 c1 88 3e 34 11 c0 3d
       0.28632054 0.13823415 0.2670977 0.09378281
0001d0 4d f6 26 be 01 e7 92 3f 7e 4b 02 3d 9c a9 15 be
       -0.16304894 1.1476747 0.031810276 -0.14615482
0001e0 17 9a 61 be c8 ec 87 bc 66 ee ca bd c6 74 b0 3e
       -0.22031437 -0.016592398 -0.09908752 0.3446409
0001f0 f1 8a 13 3e 49 82 5f 3d 96 99 d7 bd f7 ed ec be
       0.1440847 0.05456761 -0.10527341 -0.46275303
000200 c8 36 aa 3f e3 d4 b3 3e 87 4a 8e be 3a 97 d4 bd
       1.3297968 0.35123357 -0.27791235 -0.10380407
000210 46 74 85 bf aa b4 bf bc 09 d2 83 bd 95 33 26 3e
       -1.0426109 -0.023401577 -0.064365454 0.16230614
000220 f9 f9 b9 3d c1 12 9c bc 64 bd f1 3d ee a8 18 3d
       0.090808816 -0.019051911 0.118037015 0.03727048
000230 0c 21 1c be d4 ef 6e 3d 5d 60 de be 83 5c 36 3d
       -0.15246981 0.058334187 -0.43432894 0.04452182
000240 e5 5a 91 3e a3 16 3e 3d e9 06 06 be 7c 88 c7 bd
       0.2838966 0.046408307 -0.13088574 -0.09742829
000250 8e 3a 43 3e 33 ef 7c be 45 9a 09 bf 89 de 65 3d
       0.19065306 -0.24700622 -0.5375102 0.05612043
000260 df 5e 24 3e 87 40 c6 3e bc a5 46 be 3d d0 cf bd
       0.16051815 0.38721105 -0.1939916 -0.1014714
000270 c4 85 eb be aa 23 3f be 7b b0 59 3e 62 bb 43 3d
       -0.46000493 -0.18665949 0.21258728 0.047786124
000280 b5 f7 ac 3e ba 34 31 3d d6 aa 59 bd 51 c0 a5 be
       0.33782735 0.043263175 -0.053141437 -0.32373288
000290 26 f1 32 bd 7a 1d 7e bf b0 da 04 3c 8e 92 ac 3d
       -0.04368701 -0.9926373 0.00810878 0.084263906
0002a0 70 f2 24 be 66 b7 3b 3e 82 3e 53 be 3b b4 8d 3e
       -0.16108108 0.1833168 -0.20629314 0.27676567
0002b0 7d a1 c9 3d 14 31 66 be e5 e0 4c 3e 36 76 58 3e
       0.098452546 -0.2247966 0.20007665 0.21138844
0002c0 f9 eb 5d be f1 4b 8b be d0 9f 2f be 58 ac a1 bd
       -0.21672048 -0.27206376 -0.17150807 -0.078942
0002d0 d1 f7 dd bd 13 61 a0 be 1e d9 71 bd b7 63 27 3e
       -0.10838283 -0.31324062 -0.05904495 0.16346632
0002e0 dc cd 59 bd 06 3e bc 3d b2 9a 31 be 2b df 60 3e
       -0.05317484 0.091915175 -0.17344168 0.21960132
0002f0 82 82 45 3e 23 73 b1 be 68 fc 26 be 61 00 eb 3c
       0.19288066 -0.34658155 -0.16307223 0.028686704
000300 88 ea e5 3c 0c f0 25 bd b2 f7 dd 3d 1a 29 e0 be
       0.028065935 -0.04051213 0.1083826 -0.43781358
000310 2d cd bc 3e 1a 47 34 bd f1 87 3b be 9f d0 ac be
       0.36875287 -0.04401312 -0.18313576 -0.33752915
000320 1d 88 20 bf 0d 22 cf be e2 1d 02 be c4 8b 0f bc
       -0.6270769 -0.40455666 -0.12706712 -0.00876135
000330 8f 08 dc be 0c 90 3d bf 36 81 4c be 5b d7 67 3e
       -0.4297528 -0.74047923 -0.19971165 0.22640745
000340 b5 bd fc 3d bd 23 67 3e a4 af e5 3d d5 f3 01 bf
       0.12340871 0.22572227 0.112151414 -0.50762683
000350 64 1e 0b 3a 1e 4d fe be ff b6 fe 3e be 46 c4 3c
       0.0005306958 -0.4966821 0.4974899 0.023959514
000360 f1 27 d1 bd 38 95 a6 be 5a e8 41 3e d1 85 26 3e
       -0.10212696 -0.3253572 0.18936291 0.16261984
000370 78 05 96 bd 89 9a b4 3d 8c 2a 2c 3e 7e 88 9b 3d
       -0.07325262 0.08818538 0.16813105 0.07594393
000380 fe 6f c3 bc 31 6d 18 bf 40 7b 82 be 1f 57 c6 3d
       -0.023857113 -0.5954161 -0.25484657 0.09684586
000390 b8 36 a0 bd 09 c8 a4 3d ea db 49 3e 33 19 56 be
       -0.07822937 0.08045966 0.19712797 -0.2090805
0003a0 f3 d9 45 3e 96 45 4d be 8d ef 3b 3e e5 00 82 3d
       0.19321422 -0.20046076 0.183531 0.06347827
0003b0 cc dc 0f 3f 48 db 02 be d5 ae d5 be 9f 47 34 be
       0.56196284 -0.12778962 -0.4173495 -0.17605446
0003c0 c1 2f 5d be bb 9e 74 bd 15 77 76 be ad 47 81 be
       -0.21600248 -0.05972169 -0.24068864 -0.25249997
0003d0 0c 91 48 be 16 7a 8e bd aa 05 cb bd b8 13 cb 3c
       -0.19586581 -0.0695688 -0.0991319 0.024789676
0003e0 a9 21 27 be b8 16 e8 3d e5 f6 1e be c4 8b 35 be
       -0.16321434 0.11332458 -0.1552387 -0.17729098
0003f0 89 62 15 3e 9e 0f f0 be ff 91 2d bd 55 f7 03 be
       0.1458837 -0.46886915 -0.04237556 -0.12887318

fc.0.bias f4 [512]
000000 2b bc 0e be fb 6f 9d 3e 4d d9 95 be 78 1b 89 bd
       -0.13938968 0.30749497 -0.2926735 -0.066946924
000010 da d8 a4 3d 95 82 b3 3d 37 41 53 bd 61 17 5f 3d
       0.08049174 0.08765141 -0.051575866 0.054465655
000020 bc dd 08 bd 52 ec 52 3e 94 6d 2b be ad 25 bf bd
       -0.033414587 0.20597962 -0.1674102 -0.09333358
000030 c0 0f c6 3e f8 64 97 bd b1 fe bb 3d ee bc c2 3e
       0.3868389 -0.07392305 0.09179438 0.38034767
000040 57 f1 b3 3e b1 dc d6 3e 5d c2 ed bd a5 f6 fa 3e
       0.35145065 0.4196525 -0.116093375 0.490163
000050 78 c4 5f be 37 c4 13 be 56 57 8d bd 38 5d d3 3e
       -0.2185229 -0.14430319 -0.06901424 0.41282058
000060 27 f8 bf 3e d8 a3 59 be 8a 5e 21 bf 00 89 2c bd
       0.37494013 -0.21253908 -0.6303488 -0.04212284
000070 9d 2e e5 3d da 4f 4c bc 43 58 96 3e de 4e 2b bd
       0.111905314 -0.01247021 0.29364213 -0.04182326
000080 07 ec f6 bd eb fc b2 3e d4 08 65 3e f9 61 0d 3e
       -0.120567374 0.34958586 0.22366649 0.13806905
000090 c7 ab 53 3b c2 2a a1 bd 62 c1 0d 3e b0 d0 c0 3e
       0.0032298432 -0.078694835 0.13843301 0.37659216
0000a0 dc 91 18 3e ad 9c 43 3d 35 9e 52 3e a0 39 da 3d
       0.14899391 0.04775684 0.20568164 0.10655522
0000b0 ec 5a ce 3e 89 7b da 3e b9 24 b2 3e a0 ec 35 bd
       0.40303743 0.42672375 0.34793642 -0.044415116
0000c0 dd 0e e2 3e e9 1e 4c bc d2 1f 62 3e 8c f8 46 be
       0.44151965 -0.012458541 0.22082451 -0.1943075
0000d0 39 7a 02 be 0c be 5a 3e 12 ae 93 3e 14 05 ec 3e
       -0.12741937 0.2136156 0.28843743 0.46097624
0000e0 8a 55 6e 3e a8 2e f8 3c d9 be 3c 3d a7 8f d8 bd
       0.23274818 0.030295685 0.046080444 -0.105742745
0000f0 80 c4 1b be f1 a7 54 3d 92 72 f9 3e be fa 18 be
       -0.15211678 0.051917974 0.48720223 -0.149394
000100 75 38 72 3e c8 ef f3 3e de 88 3c 3e cc 27 a2 3c
       0.23654349 0.47643876 0.18411586 0.019794367
000110 aa 9c 0e be ec e9 ad bd 5c 15 9e 3e d7 f6 c7 3e
       -0.1392695 -0.08491883 0.3087567 0.3905551
000120 fa da d9 3d cc 8e 2b be bd ab 0a bd 84 8a 53 be
       0.106374696 -0.16753691 -0.03385519 -0.20658308
000130 f7 35 d2 3e 3e 7c 05 3f 24 8d 8f 3e 0c 66 0b be
       0.41056797 0.52142704 0.2803737 -0.13613147
000140 9d bc a2 be d4 c6 8f 3c e7 41 b6 be 12 de 85 be
       -0.31784526 0.017550863 -0.35597154 -0.2614599
000150 94 27 23 3e 4b 84 52 3d 4d f9 1f be 3f d7 9c be
       0.15933067 0.051395696 -0.15622444 -0.3063297
000160 2e 97 f2 3d 03 a1 3a 3e 82 e6 28 be 78 22 94 be
       0.118452415 0.18225484 -0.16494182 -0.28932548
000170 6f 6a 4a 3c dc 59 f4 bd 85 4b e8 bd 7f 8c a9 bd
       0.012354477 -0.11931202 -0.11342529 -0.08278751
000180 e4 55 05 bd da 26 00 3e 17 28 93 3e b0 6e 84 3d
       -0.032552615 0.1251482 0.28741524 0.064664245
000190 48 fb f3 3b 93 19 72 3e 2b 36 8d 3c a9 b3 89 3e
       0.0074457265 0.23642568 0.017237743 0.26894882
0001a0 19 68 32 3f 88 31 48 bd 03 08 3d be 5c 8c a1 be
       0.6969009 -0.04887536 -0.18460087 -0.31552398
0001b0 28 ee e6 bd 9e 5e 7c be e3 a8 63 3e 7f 3e d6 3d
       -0.112758934 -0.24645469 0.22232394 0.10461139
0001c0 eb a7 b8 bd 6d 17 ac be 78 e4 15 be 60 75 bf 3e
       -0.09016403 -0.33611622 -0.14637935 0.37394238
0001d0 23 ba bf bd df d5 7b 3e 0b b1 20 3f 7a 3f 52 be
       -0.09361675 0.24593304 0.62770146 -0.20532027
0001e0 5d ca 00 3f 73 73 36 be e3 28 64 be 46 0c 3c 3d
       0.5030878 -0.17817478 -0.22281222 0.045910142
0001f0 3c f8 cb 3e d3 f3 f1 3d e4 a2 90 3d 49 a2 e2 3e
       0.39837825 0.11814084 0.07062319 0.4426444
000200 64 3e 40 3e f8 86 c7 3e cd ca d8 3e fa c2 45 3e
       0.187738 0.3897016 0.42342225 0.19312659
000210 35 27 f9 3d fd 77 8e be 98 5a 3a bd 81 11 b7 bd
       0.12165681 -0.2782592 -0.045496553 -0.089388855
000220 cc 87 9b 3e 99 f6 e1 3d 2d d1 10 3f 18 39 c0 3e
       0.30377042 0.11033363 0.56569177 0.3754356
000230 2e b2 7a be a1 8a 8e bd ae 92 16 3f f8 04 a0 3e
       -0.24482033 -0.06960035 0.58817565 0.3125379
000240 95 85 7e 3e 06 0a a6 3e 11 33 2f 3e c2 2e a2 3e
       0.24855645 0.32429522 0.17109324 0.31676298
000250 10 19 9b 3e 53 00 39 3e 73 6b 0f be 20 5f 53 3d
       0.3029256 0.1806653 -0.14005832 0.05160439
000260 4f a2 ed 3d be c9 7f 3d 86 e8 3b be 70 b9 48 3e
       0.116032235 0.062448256 -0.1835042 0.19601989
000270 31 a2 85 bd 7b 64 fe 3d 3c 22 05 3e 3a 15 78 bc
       -0.06525076 0.12421509 0.1300134 -0.01514178
000280 9e e2 92 3d 1e 48 ad be 03 b3 02 3e cd 5a 88 be
       0.0717213 -0.33844084 0.127636 -0.26631775
000290 d1 71 ad 3d 95 2f 6d 3d c3 d2 bd 3e 83 13 28 be
       0.084689744 0.057906706 0.3707486 -0.16413693
0002a0 7e 5d 40 3d 87 86 e2 bd ea bf 9d bd 2c 17 c9 bd
       0.04696416 -0.11060815 -0.0770262 -0.09818873
0002b0 3c f9 3d 3e 42 3d 45 3e f0 15 59 3e 3f 59 ad bc
       0.18552107 0.19261649 0.21199775 -0.02116072
0002c0 84 85 b6 bd 69 bd f4 3c 75 64 0c 3e 33 0b 84 be
       -0.08912185 0.029875474 0.13710196 -0.25789794
0002d0 b2 78 1e 3e 60 25 8b 3e 57 2a c4 3e 80 a5 80 3e
       0.15475729 0.27176952 0.38313553 0.25126266
0002e0 71 37 c0 3e 43 16 00 3f dd a6 a6 3e 51 e1 ed 3e
       0.37542298 0.5003397 0.32549182 0.46460965
0002f0 68 bc d8 bd f1 d2 e8 3e d3 a0 18 3f 64 0e aa 3e
       -0.10582811 0.45473436 0.596204 0.33214104
000300 68 82 b7 bd 4c 3d 24 3d b5 40 b9 3e 22 58 04 3d
       -0.0896042 0.04009752 0.3618218 0.032310612
000310 9a 77 7c bd fe c6 94 3e 34 e7 0c 3e d9 60 1d bd
       -0.0616375 0.2905807 0.13760072 -0.03842244
000320 fa 99 38 3d cc fb b0 3d 68 a9 35 3e 1c d5 d4 3d
       0.04506872 0.086417764 0.17740405 0.1039221
000330 b2 12 63 bc 0e bd cf 3c 2a 7e 0c 3f 36 b2 9f 3e
       -0.013859438 0.025358703 0.5488001 0.31190652
000340 c7 70 0a 3e 1a ae 41 3d 20 bf 76 3e 3f b8 8d be
       0.13519584 0.047285177 0.24096346 -0.2767963
000350 aa bf f2 be 49 27 c5 3e 11 b2 86 3d 48 d6 65 3d
       -0.47411853 0.38506535 0.06576932 0.056112558
000360 9f e4 f3 bd 10 f5 c5 3d d8 24 c7 be b8 12 ee 3c
       -0.119088404 0.096658826 -0.38895297 0.02906166
000370 f8 f8 95 3e 8c 8a 5e bc b4 48 c6 bd d4 ce 8f 3e
       0.2929151 -0.013582837 -0.09681836 0.28087485
000380 68 8b a0 3d ba 0a 9d 3e af 1f 98 3e fa 64 13 3f
       0.0783909 0.30672246 0.29711673 0.57575953
000390 74 a4 aa 3e 5e e7 0b bd 8c ce 5a 3e 23 7c bd 3d
       0.33328593 -0.034156196 0.21367854 0.09252193
0003a0 4c b8 24 be 40 f6 98 3e c0 99 81 3e 59 49 02 be
       -0.16085929 0.29875374 0.25312614 -0.12723292
0003b0 90 a1 9d bd 5a 46 1b bd 5a b6 7d 3e 43 5d fe 3c
       -0.07696831 -0.03790889 0.24776593 0.03105033
0003c0 83 7d 07 be 55 30 fe 3c 41 59 ef 3c 39 ad 97 3e
       -0.13231473 0.031028906 0.029217364 0.29624346
0003d0 9a ed e3 3e 97 1f cd bc 35 34 1c bd 06 c9 62 3d
       0.44517213 -0.025039477 -0.038135726 0.055367492
0003e0 a7 67 d6 3d 33 9a 24 3f 14 ad aa 3e 4b 48 b8 be
       0.10468989 0.6429779 0.33335173 -0.35992655
0003f0 c3 56 43 3e e4 d2 59 be db e8 9e bd 73 c4 41 be
       0.19076066 -0.21271855 -0.077592574 -0.18922596

fc.2.weight f4 [256, 512]
000000 f0 0d d4 bc d5 1b 86 3b 5e 77 09 3d 7c ef ad bb
       -0.025885552 0.0040926733 0.033561103 -0.00530809
000010 4f e1 9a 3c c0 f6 96 bb 70 85 21 3d 47 66 23 bd
       0.018906264 -0.0046070516 0.039433897 -0.03989246
000020 a4 d6 ec 3c 20 3b 01 bd d3 6b d7 bc 27 fc 2c bd
       0.028910942 -0.031550527 -0.026296532 -0.04223266
000030 ac 00 0e 3b ca 37 97 3c cb df 13 bd 85 cf 1c bd
       0.002166788 0.01845922 -0.036102097 -0.038283844
000040 fc d6 c2 3c ec 6b 28 3c a8 d2 7d 3b 13 f5 7e bc
       0.023784153 0.010279637 0.0038730297 -0.01556136
000050 4f a9 97 bc 3b ea 19 3c cd 43 da 3c b9 cd 64 3c
       -0.01851335 0.009394224 0.026643658 0.013965064
000060 b7 68 dd bc 85 81 da bc e1 12 86 bb 99 64 45 bc
       -0.027027471 -0.026673088 -0.004091606 -0.01204791
000070 2b 9d b8 3c e9 e8 8f 3c 05 3d c7 bc f5 26 2d 3c
       0.022535881 0.017567115 -0.024321089 0.01056837
000080 c2 64 cf bc b0 6c cd bc 63 be ba bc fb f8 18 3d
       -0.0253166 -0.02507624 -0.022795862 0.03734682
000090 41 33 ee bc 1d 19 cf bc 07 23 1e 3d 79 4c ab bc
       -0.029077174 -0.02528053 0.038607623 -0.020910488
0000a0 ba 71 52 bc 0b 42 ba bc f5 16 a4 bc f5 a6 f3 3c
       -0.012844497 -0.02273657 -0.020030478 0.029742697
0000b0 60 15 6f 3b a2 8a 80 3b 39 a6 23 bd b2 26 cc bc
       0.0036481246 0.0039227763 -0.039953444 -0.024920795
0000c0 94 33 49 3c 56 88 03 bd ec fd c5 bc 6b cc ba bc
       0.012280364 -0.032112442 -0.024168931 -0.022802552
0000d0 3c cb 9b bc 9e 84 09 ba a2 17 f4 3c f9 d2 59 bb
       -0.019017808 -0.0005245897 0.029796425 -0.0033237322
0000e0 9a 9b 01 bd 82 8c 00 3c 5e b0 3e 3d 55 c2 59 3c
       -0.031642534 0.007846 0.046554916 0.013290961
0000f0 29 14 d5 3b 50 a2 19 3d 04 73 c3 bc ff 43 5e bc
       0.0065026474 0.03750831 -0.023858555 -0.013566016
000100 a6 d9 1e 3d fc 2f 1f bb 6a 83 af bc bc f5 e9 b9
       0.038781784 -0.0024290076 -0.021424968 -0.0004462431
000110 db a8 fe bc ef 38 72 3b c7 68 4b ba f6 7d 98 bc
       -0.031086376 0.0036960205 -0.00077594485 -0.01861475
000120 42 df a7 bc ae a8 11 3d c1 19 8e bb 5f e4 b8 3c
       -0.0204922 0.035561256 -0.004336566 0.022569833
000130 60 dd 7b 3c 80 5f 27 3c 60 ee 27 bd 65 05 9e bc
       0.015372604 0.01021564 -0.040998816 -0.019289682
000140 70 ab 00 bd a3 47 9b 3c b0 4d e6 3c 5e a8 9b bb
       -0.031413496 0.018955057 0.028113216 -0.0047502955
000150 ad 7c 07 bd b0 e5 01 bd 87 32 21 3c 86 91 09 bc
       -0.033077884 -0.031713188 0.009838707 -0.008396512
000160 d9 56 16 3d 7e 8a 0f bd 36 40 b2 3c de ac a3 3c
       0.036703918 -0.035044186 0.021759134 0.01997989
000170 49 2a 39 3c 86 86 8d 3c d0 f4 24 bc 21 2f 29 bd
       0.0113015855 0.01727606 -0.0100681335 -0.04130471
000180 2c 14 98 3c 23 43 90 bc 81 c9 b5 bc 6a 26 75 3b
       0.018564306 -0.017610138 -0.022190811 0.003740693
000190 93 40 2c bd 5a 53 ef bc 39 7b 29 3d be 91 07 3a
       -0.04205377 -0.02921455 0.04137728 0.00051715586
0001a0 d4 2d 22 bd db 63 09 3d 04 49 01 3d a7 0d bc 3c
       -0.039594486 0.033542495 0.031563774 0.022955729
0001b0 21 84 e1 bc 19 5a 8c 3c e3 3b 23 3c 33 4b 63 3c
       -0.027528824 0.017132806 0.009963009 0.013872909
0001c0 38 3b 1f 3d 8a 51 ce 3c e7 de d1 bb d6 12 34 bd
       0.038874835 0.025185365 -0.006404746 -0.043963276
0001d0 1d 90 ec bb 5b eb 1d 3d c4 06 f1 3b f5 f1 bc bc
       -0.007219328 0.03855453 0.007355543 -0.023064593
0001e0 49 b3 2e bd e3 ef f7 bb 24 84 1f 3d c7 58 d8 3c
       -0.04265145 -0.0075664385 0.03894438 0.02640952
0001f0 21 2d 40 3b c3 85 ee 3c d2 38 47 bd 21 47 ea 3b
       0.0029323774 0.029116517 -0.048638172 0.0071495925
000200 88 16 a8 bc 64 a1 0e bc a5 69 c1 bb 26 c6 5a bb
       -0.020518556 -0.008705471 -0.0059024864 -0.0033382266
000210 c7 74 0f 3d fe 39 e0 3b ce fc d7 bc b6 54 f5 ba
       0.035023477 0.0068428507 -0.026365664 -0.0018717262
000220 97 9c 13 bd af ad cb bb 1d 07 b8 b7 0f e5 b6 bc
       -0.036038008 -0.006215773 -2.1937822e-05 -0.02232602
000230 41 68 79 3c 29 6d f4 3c 30 cd 58 bc 3a 21 4d 3c
       0.01522261 0.029837208 -0.013232514 0.012520129
000240 b2 d8 b4 bc 05 1f fe 39 e5 30 53 3c a2 8e 24 bd
       -0.022075985 0.00048469767 0.012890075 -0.040175088
000250 2e 01 ff bc 61 a9 6d bc f0 6f d4 3c 58 17 03 bd
       -0.031128492 -0.014505715 0.025932282 -0.032004684
000260 bd 6e cc 3c 23 3d ea bc 3f b0 1e 3d 98 b6 00 bd
       0.024955148 -0.028593605 0.0387423 -0.031424135
000270 b7 74 34 bd 69 dc e0 b9 52 bd 36 bd a8 b1 06 bd
       -0.04405662 -0.00042888828 -0.044614144 -0.03288427
000280 3f d7 8f bc 5d 9e 67 3c 8e ef 1c bd 85 65 9e 3c
       -0.017558692 0.014136878 -0.038314395 0.019335518
000290 62 06 1e bd a9 e7 6d bc 00 1a 71 3c 5d a9 1e bd
       -0.038580306 -0.014520564 0.014715672 -0.038735736
0002a0 4b b8 1e 3d 54 32 5c 3c 3e 6c d0 3c cf 23 87 bc
       0.038749974 0.013439734 0.025442239 -0.016496567
0002b0 f2 f7 bd bb 7b 75 dc 3c ab 74 2f 3d aa 5d ed bc
       -0.0057973797 0.026911488 0.042835873 -0.028975327
0002c0 48 02 14 bd 47 1e fe 3c 98 39 f9 ba 58 46 3f bd
       -0.036134988 0.031020297 -0.0019014357 -0.046697944
0002d0 d9 fa 8b 3c 77 4a 0f bd 18 04 1c 3d db ed 47 bd
       0.017087387 -0.034983125 0.03808984 -0.04881082
0002e0 4f 31 13 bd 0c ef cf bc 60 07 15 bd 12 e7 af ba
       -0.035935696 -0.025382541 -0.036383986 -0.0013420305
0002f0 cc d0 05 3d f7 18 0b 3d bd 6f fb 3c 38 66 ef 3b
       0.032669827 0.033959355 0.03069293 0.0073058866
000300 21 a8 7b 3c 41 39 0a 3c 44 54 80 bc 67 7b 33 bd
       0.015359909 0.008436502 -0.015665181 -0.043818858
000310 eb 89 1b bc 5e f2 33 bd f5 6a 3b bd 67 0d e1 bc
       -0.009493331 -0.04393231 -0.0457563 -0.027472211
000320 5c 31 01 bd 90 08 cf bc d1 61 06 bc 5c d9 da b8
       -0.031541213 -0.025272638 -0.008202032 -0.000104355364
000330 a7 40 39 bd 5a 7b 05 bd 22 ad 24 3d e2 d2 2a bd
       -0.045227673 -0.03258834 0.040204175 -0.04170502
000340 39 c8 c0 bc 57 06 b6 bc bd 49 81 bc 77 24 c5 3b
       -0.023532974 -0.02221982 -0.015782231 0.00601631
000350 71 84 ec 38 b5 c1 58 bc 33 13 a9 bc 6d ea 1c bd
       0.00011278026 -0.013229777 -0.020639038 -0.038309503
000360 77 c2 d5 bc f8 45 94 3b e1 84 b7 bb 94 08 a8 3c
       -0.026093705 0.0045249425 -0.005600557 0.020511903
000370 64 1b 34 3c 40 54 c2 3c c6 39 e0 bc 4d 3c d8 3c
       0.010992859 0.023721814 -0.027371299 0.026395941
000380 0f b0 af bb 7d b2 d8 bc f1 b5 2d bd 2a 46 1e bd
       -0.005361564 -0.026452297 -0.04240984 -0.038641132
000390 00 e2 fa 3c 9d a2 78 bc c4 9d a2 bc a6 9e 2a 3d
       0.030625343 -0.015175489 -0.01985062 0.041655205
0003a0 2e 28 f8 bc c4 b3 a0 3c 46 93 b3 39 44 5a 15 bd
       -0.030292597 0.019616969 0.00034251268 -0.036463037
0003b0 ce 9d c1 3c 5f b5 04 bd 93 48 19 3d 73 66 7a bc
       0.023634817 -0.03239953 0.037422728 -0.015283215
0003c0 04 77 cb 3c 9e d2 09 3c f7 7d b2 bb 8f 8a ac bb
       0.024837025 0.008412031 -0.005447145 -0.005265541
0003d0 d4 45 09 bd 9b 6a 3a 3c 12 21 03 3c 14 c6 10 3d
       -0.03351386 0.011377956 0.00800349 0.035345152
0003e0 b2 49 17 bd 89 7a 8a 3c af f3 f4 bc 7a 28 98 3c
       -0.036935516 0.016904132 -0.029901354 0.018573988
0003f0 51 68 06 3d 07 65 d6 3c f3 a2 32 3c c4 72 12 bc
       0.032814328 0.02617122 0.010903108 -0.008938495

fc.2.bias f4 [256]
000000 2e e1 0e bc 6f 9a e5 3d d2 4e c5 3e c9 3f d6 3d
       -0.008720679 0.112110965 0.38536698 0.10461385
000010 7a 2a 1d 3d a8 c6 32 bd f0 25 85 bd 3d a7 36 3d
       0.038370587 -0.043646485 -0.06501377 0.044593085
000020 24 6e b8 3c da aa d2 bd a4 ff 05 3d 59 4c 34 bd
       0.022513457 -0.102864936 0.0327145 -0.044018123
000030 5f a9 34 3c 4e c7 8c 3d 59 6d 8e 3d ad 78 04 3e
       0.011026709 0.06873952 0.0695445 0.12936659
000040 ac 46 de 3d e3 a6 da 3d 0d c3 16 bb ac 0b 9d bd
       0.10853323 0.10676362 -0.0023004443 -0.07668242
000050 00 b5 87 bd 24 11 00 3e fb 72 69 3d ee 1a ec 3d
       -0.0662632 0.12506539 0.05699442 0.11528574
000060 e2 16 a7 bc 63 95 cc bc e5 aa f4 3d 2a aa 7e 3d
       -0.020396654 -0.024973577 0.11946658 0.062174
000070 3e 98 c3 3d 3d b0 14 bc e8 2d b4 3c 0f 4c 07 be
       0.09550522 -0.009075222 0.021994546 -0.13212608
000080 20 72 20 3d bc fd 45 3c ba a0 12 3e 19 12 da bc
       0.039171338 0.012084421 0.14319125 -0.026619958
000090 4f d9 ba 3d ec 3e 1e 3e 61 a5 e1 3c 88 d2 51 3d
       0.091234796 0.1545369 0.02754468 0.05122617
0000a0 fe f8 0b 3e 8a 00 82 3c 53 3b e5 bc 84 ba 38 bd
       0.13669202 0.015869398 -0.02798239 -0.04509975
0000b0 c2 c1 b1 3d d3 5e 82 3d c4 17 15 3e 06 e0 02 bd
       0.086795345 0.063657425 0.14559847 -0.031951927
0000c0 7d a3 0c 3e 3a ff f8 3d 6f 7b 92 3d a8 b8 b8 3d
       0.13734241 0.121580556 0.07152449 0.090195954
0000d0 57 24 e9 bc 9d 52 01 bd 12 21 2f bc f7 0b 5f bc
       -0.028459711 -0.031572927 -0.010689037 -0.0136136925
0000e0 0e 64 30 bc d2 59 7d bc 68 2c d8 bd fb 34 80 3e
       -0.010766042 -0.015463309 -0.10555345 0.2504042
0000f0 b7 24 12 3d b8 ca 97 3e d7 a9 8c 3b 65 9b 4f bc
       0.035679545 0.2964685 0.0042927074 -0.012671326
000100 ee 47 07 be f8 e8 78 3d 16 86 f2 3d ef 75 82 3d
       -0.13211033 0.06076905 0.11841981 0.0637015
000110 9c 60 97 3c 83 3c 53 3d dd 8c c5 3d 76 a2 4a bc
       0.018478684 0.05157138 0.09646008 -0.012367835
000120 ca 14 48 3d 96 0f 13 3e 61 5b c9 bb 16 ec 2a 3e
       0.04884795 0.14361414 -0.0061449264 0.16691622
000130 df f5 ce 3d bb 6e 6e 3e 1c 9d 98 bb 89 fe 44 3e
       0.1010549 0.23284428 -0.004657401 0.19237722
000140 97 8a a8 bc a0 cf af bd b9 e9 80 bd 0f 63 d9 bd
       -0.020573897 -0.08584523 -0.06294579 -0.10614597
000150 96 91 55 3d 0d f6 2b 3e 4a 76 d0 3d f6 ba df 3b
       0.052140795 0.1679308 0.10178812 0.0068277074
000160 69 50 49 bd bb 71 be 3e fc 7c 54 3c 93 b1 bb 3d
       -0.04914895 0.37196144 0.012969252 0.09164729
000170 aa d1 b7 3d 7a 42 74 3d 0b 6c cf bc fc 74 ed 3d
       0.08975537 0.05963371 -0.025320074 0.115945786
000180 cd 2f ca 3e 58 79 88 3d a0 02 d8 b9 4a 3f a4 3c
       0.39489594 0.066637695 -0.00041200686 0.02004971
000190 d6 f7 8b 3d 11 60 af 3c 33 ca 31 3e c9 ac b4 3d
       0.0683438 0.021408113 0.17362289 0.08822019
0001a0 09 f3 34 bc 71 1d 64 3d e1 76 8f 3c cc 1b 15 3d
       -0.011044272 0.05569214 0.01751274 0.036403462
0001b0 fd 7d 98 bd 20 ae 57 3c 24 7c e4 3d 21 8f 08 3d
       -0.07445905 0.013164073 0.111564904 0.033339623
0001c0 9f c1 47 3e 5f 8c 99 bd 96 84 cc 3c 7d 5b 06 3e
       0.19507454 -0.07497477 0.024965566 0.13120838
0001d0 a4 77 4e 3d 6e 07 da bd 91 c5 27 3e 65 ce 3d 3a
       0.050407067 -0.10645948 0.1638396 0.0007240533
0001e0 cb 4a 92 bc 7f a3 ad 3c 8a ab c0 3d b9 07 cd 3c
       -0.01785793 0.021196125 0.094077185 0.025028097
0001f0 78 1e c6 3d 58 55 f9 3d 61 ab 78 bc 15 4c e6 bb
       0.0967378 0.12174481 -0.015177579 -0.0070281127
000200 18 3d 92 3c 1e 36 1f 3b 4a c3 09 3b 88 77 f9 3d
       0.017851397 0.002429373 0.0021020942 0.12181002
000210 65 88 9e 3e bb c4 87 3d 20 78 d6 3c 73 cb 29 3e
       0.30963436 0.0662932 0.026180327 0.16581516
000220 b7 76 87 3d 0b 69 c4 3d e0 04 8c bb cc 06 87 bd
       0.0661444 0.09590348 -0.004273042 -0.06593093
000230 9b 89 0e 3e eb 8e ff 3d 2e 52 25 3e 1c 4d d0 3d
       0.1391968 0.12478431 0.1614463 0.101709574
000240 5a 98 61 bd 3f 09 d3 3d 3c 54 92 3d cd 08 19 3c
       -0.055076934 0.10304498 0.07144973 0.009340477
000250 34 2e b4 3d ec 09 e1 3d 8e b9 17 3d 63 d7 1b 3d
       0.08797875 0.109882206 0.037042193 0.038047206
000260 62 3f 50 3d aa 48 9e bd d8 2f f1 3c 2b cb ca bc
       0.050841697 -0.07728703 0.029441759 -0.024755081
000270 00 95 d6 bd 18 25 1f bd a0 62 ab 3c 7f da 1f 3e
       -0.10477638 -0.038853735 0.020921052 0.15610693
000280 53 d8 c2 3c 15 11 54 bc a9 21 91 bc b3 ee 75 3e
       0.023784792 -0.012943526 -0.017716246 0.24016838
000290 85 d4 5f bc d2 e8 41 bd 84 2d f3 3c 41 bf 01 3d
       -0.013661508 -0.047341175 0.02968479 0.031676535
0002a0 be 77 ad 3e b7 6c 30 bd 6d 69 46 3e 1c 14 c9 3d
       0.3388042 -0.04307243 0.19376154 0.09818289
0002b0 6f dc a4 3d 90 5b d4 3d 73 cf 35 bd 81 d1 88 3a
       0.08049857 0.10369027 -0.044387292 0.0010438414
0002c0 7c 9a e6 3c 8a af c2 bc 20 7f 19 bd 19 d4 1b bd
       0.028149836 -0.023765344 -0.03747475 -0.03804407
0002d0 7a 56 14 3d f3 20 34 3c 42 90 11 bc 98 73 92 3d
       0.036215283 0.010994184 -0.008884491 0.07150954
0002e0 af 88 a4 bb fc 5d 9c 3a 85 2a 5d bd a1 5d 0e 3d
       -0.0050211768 0.0011929865 -0.053995628 0.03475726
0002f0 f7 f1 c3 bb 7a 74 1b 3e 7e 3a d7 3d 0f b0 34 3c
       -0.005979772 0.15181151 0.105092034 0.011028304
000300 c7 3a 72 3d fe 37 ea 3d bf b4 99 bc 26 2b 62 3e
       0.059138086 0.11436461 -0.018762944 0.22086772
000310 92 57 16 bd f4 b8 e3 3e 96 56 16 3e 32 8d c3 3c
       -0.036704607 0.44477046 0.14681467 0.023871038
000320 c1 fd f8 bc 40 a0 78 3d 31 ee 51 3e b2 cf b4 3c
       -0.030394437 0.0606997 0.20501019 0.022071693
000330 4e 30 e1 3d 45 6b 5a bc 2d 94 89 3e 7a a3 08 3d
       0.109955415 -0.013331239 0.26870862 0.03335903
000340 bf 01 d4 3d 1d 97 29 3d 2a 22 db 3d 9f b5 19 3d
       0.103518955 0.04140388 0.10699876 0.037526723
000350 a2 f7 1a 3e 4b d7 b6 3d a0 dd ba bc 18 70 ab 3c
       0.15133527 0.089277826 -0.022810757 0.020927474
000360 2d b3 1a 3d 14 ce a9 3d e8 36 8f be ed c6 fc 3c
       0.03776853 0.082912594 -0.27971578 0.030856574
000370 67 ab 44 bd 8d 6c f1 bc fa 6d 85 bd 63 16 e8 3d
       -0.048015025 -0.029470706 -0.06515117 0.11332395
000380 6b 82 9b 3c f5 f2 ba bd 07 f7 f0 3d d3 89 32 3e
       0.018983087 -0.091283716 0.11765867 0.17435388
000390 8a a3 58 be 1c 26 2e 3d 6e ae e6 3d a6 16 04 bd
       -0.21156135 0.042516813 0.112637386 -0.03224816
0003a0 4c eb 86 bc 8a e2 01 3e 3c a6 18 3e c8 b1 9b 3e
       -0.01646962 0.12684074 0.14907163 0.30409074
0003b0 a9 3b b5 3d 87 28 06 3e eb 93 8c 3d 33 2b 21 bd
       0.0884927 0.13101397 0.068641506 -0.03934784
0003c0 6a af 17 ba 87 34 18 3d ac 61 dd 3d 0b d0 87 bd
       -0.00057863316 0.03715947 0.10809645 -0.06631478
0003d0 cd 9d 51 3d cf 46 b7 3d 78 bd 2e 3e a0 a0 57 3e
       0.05117588 0.089490525 0.17064464 0.21057367
0003e0 f4 f3 2a bd ea 7d 4a 3e e0 7e c1 3d 67 ca d5 3c
       -0.041736558 0.19774595 0.094480276 0.02609749
0003f0 5a ae bb bc 89 6f cd 3d 02 f0 3a bd 85 7f 50 3c
       -0.022910286 0.10031039 -0.045639046 0.0127257155

fc.4.weight f4 [128, 256]
000000 ac 47 1b bd 85 b0 09 c0 cb 74 bc 3e 0f 5a 22 bf
       -0.03791015 -2.151399 0.36807856 -0.6341867
000010 bc 47 7b 3f c0 a3 01 bd 2c 3f 42 c0 bd c7 01 3f
       0.9815633 -0.031650305 -3.0351057 0.506954
000020 7f 64 36 bc 7d 53 53 3f a1 f5 03 3f ef 74 83 bd
       -0.011132359 0.8254927 0.51546675 -0.06418788
000030 03 10 32 3d 50 ba 25 bf 91 9f f6 3e d7 61 23 c0
       0.0434723 -0.64737415 0.48168615 -2.5528467
000040 aa b9 37 bf 8b 36 38 bf 52 e6 e6 3e ea 45 12 3f
       -0.71767676 -0.71958226 0.45097595 0.5713793
000050 b9 d8 80 3f 31 d5 29 bf 6e ab 23 3f 47 de 4b bf
       1.0066139 -0.6634093 0.63933456 -0.79636043
000060 bd ef ca 3e 22 5a ee 3c ea 4d 22 bf 9a 95 c1 3e
       0.3963603 0.029095713 -0.6340014 0.3780945
000070 1e 66 23 bf 53 f2 0e 3d c2 72 b2 bd 97 f9 fb 3f
       -0.63827693 0.034899067 -0.087132946 1.9685544
000080 b0 8e 43 bd 22 6b 40 3f 3b 6b 4a bf cc 93 c4 3b
       -0.0477435 0.7516347 -0.7906987 0.005999064
000090 7a b9 10 bf ef bf 17 bf df 64 87 3f 27 91 d2 3d
       -0.56533015 -0.5927724 1.0577658 0.10281592
0000a0 18 7d ba 3f 32 25 28 3f 54 27 03 bd 08 83 6b 3d
       1.4569426 0.65681756 -0.032019928 0.057498008
0000b0 c1 bb 3d 3f 29 5e 48 3f c8 f1 0c 3f 8d b7 2f bc
       0.74114615 0.78268677 0.5505643 -0.010724914
0000c0 5e ba 01 40 f0 f7 02 c0 cb d3 19 3f b3 ee 19 3f
       2.027 -2.046383 0.60088795 0.6012985
0000d0 89 f8 f1 3e 98 b6 f0 3c d1 75 5f 3d 8b 3a 40 bc
       0.4725993 0.029383942 0.054555718 -0.011732708
0000e0 bd ca 0a c0 6f b2 07 3f 4e af 60 3f 26 9c ba be
       -2.1686242 0.53006643 0.87767494 -0.36447257
0000f0 b5 dc d2 be cb 67 04 3f 7a 14 23 3d 81 89 2c 3f
       -0.4118401 0.51720876 0.03981445 0.67397314
000100 fa 38 23 bd 14 86 06 c0 85 97 05 c0 7e 6f 03 3f
       -0.03984926 -2.1019335 -2.087373 0.51342
000110 6a a1 03 3f 3b c5 7a 3f 9e 34 06 c0 d1 dd e5 3c
       0.51418173 0.979572 -2.0969615 0.028059872
000120 eb d3 1d bf 26 dd f1 3e 4c d6 45 3d fb 85 80 3f
       -0.61651486 0.47239035 0.048300073 1.0040888
000130 3b c5 dd bf 28 c2 1a be ff 86 2e 3f 7f 31 6c be
       -1.7325815 -0.15113127 0.6817474 -0.23065756
000140 7e 11 15 3f 05 af 3c 3f 37 17 04 3e f9 ce 47 3f
       0.58229816 0.7370456 0.12899481 0.7805019
000150 51 76 f7 bf 31 9b 0e bf 2a 76 87 3e e0 fd 4c 3f
       -1.9332982 -0.55705553 0.2645734 0.8007488
000160 d6 18 86 3f 27 d5 3d 3f cd 76 8b 3f 43 63 36 bf
       1.0476329 0.7415337 1.089563 -0.7124521
000170 a8 fd 1b 3f 1f 31 c3 3e 51 8d d0 3e df 32 2a bf
       0.60933924 0.38123414 0.40732816 -0.66483873
000180 99 52 22 3f de 9c 24 bf c7 1a ff 3c 03 08 66 3d
       0.63407284 -0.6430186 0.031140698 0.056159984
000190 48 6e 0c c0 1a 9c ed 3e ef 22 28 be ca 53 32 bf
       -2.194231 0.4640816 -0.16419576 -0.696591
0001a0 9a 82 14 3f 95 90 27 bf 78 b5 49 bd f3 48 51 bf
       0.5801178 -0.6545499 -0.049245328 -0.81751937
0001b0 d1 b0 6c 3f 6c f4 fd 3f 67 fc f0 bf 3d 9b 44 bf
       0.924573 1.9840217 -1.8827027 -0.76799375
0001c0 e6 0f 1a 3e 08 b5 4e 3f 06 75 49 3f 26 5c 1a bf
       0.15045127 0.8074498 0.7869419 -0.6029686
0001d0 5a 44 42 bf 0e db 09 3f 34 49 26 c0 50 17 af bb
       -0.75885546 0.53849876 -2.598218 -0.0053433552
0001e0 3c a7 78 3f 10 c2 5e bd f2 40 e9 bf 1d ab 49 bf
       0.9713018 -0.05438429 -1.8222945 -0.78776723
0001f0 bb 94 6a bf a7 63 ea 3e e7 5f 08 3f 75 1d 4d 3f
       -0.91633195 0.45779154 0.53271335 0.8012307
000200 9e e1 17 3f cc d8 45 3f f6 c7 b9 3e cb 38 1a 3f
       0.5932864 0.7728393 0.3628537 0.6024291
000210 e0 10 23 3f 35 de 48 3f 7e bd ed 3e f1 0c 5f 3f
       0.63697624 0.7846406 0.46433634 0.8712912
000220 ea 84 26 bf 0b b8 28 bf 43 b3 d6 bc 8c 28 48 3f
       -0.6504656 -0.6590583 -0.026208526 0.7818687
000230 bc fc 1c bf 43 30 1a 3f 5f b5 e6 3e 5e 1d e3 3e
       -0.6132314 0.6022989 0.4506025 0.44358343
000240 ea f2 0b 3f 00 a2 e9 3e 60 45 06 c0 84 14 80 3f
       0.5466753 0.4563141 -2.0979843 1.0006261
000250 85 92 37 bf 04 8b 24 bf 35 44 1a 3f b2 87 7a 3d
       -0.71707946 -0.6427462 0.60260326 0.061164565
000260 88 61 26 3f fb 1d 2c 3f cf e8 9d c0 d0 4c bf bd
       0.6499257 0.67233247 -4.934669 -0.09340823
000270 55 b3 d9 3e cb 50 8c ba 71 33 95 bc a4 26 3b bf
       0.42519632 -0.001070523 -0.018213006 -0.73105836
000280 c4 77 c6 bc 54 c6 7b bf 8d cc b1 3c 48 90 04 be
       -0.02422703 -0.983495 0.021703983 -0.12945664
000290 10 8b 66 3f 14 2f dd 3c 3e f7 47 bf 06 85 91 3e
       0.9005594 0.026999988 -0.78111637 0.284218
0002a0 0f 82 fd 3e 28 5d e9 3c e9 4d d2 bb 52 82 21 bf
       0.4951329 0.028486803 -0.006417979 -0.6308948
0002b0 7b 45 da bf 5f 43 3d bf 10 d7 9a 3f ee 0f 14 3f
       -1.7052454 -0.73930925 1.2096882 0.57836807
0002c0 55 53 58 3d 18 01 44 3f af cd 83 3f a4 73 0b bd
       0.052813847 0.7656417 1.0297145 -0.03404583
0002d0 d4 eb 3e 3f 9d b1 5f 3c df 57 42 3f 6c df 18 c0
       0.74578595 0.013653186 0.7591533 -2.3886366
0002e0 f3 ac 95 bf 46 33 56 3d 79 ac 41 be 9d bb 60 bf
       -1.1693405 0.052294992 -0.1891345 -0.87786275
0002f0 89 a0 30 bd 97 24 cd 3d 6b c3 3a bf f2 37 10 c0
       -0.04312185 0.100167446 -0.72954434 -2.2534146
000300 fd ee 2a bf 00 19 42 bf 64 5f 7b bf 5c ca cb 3e
       -0.6677092 -0.75819397 -0.9819243 0.39802825
000310 92 ab 29 3d 75 c5 15 3f ab 71 32 bf e3 47 2e bf
       0.041423388 0.5850442 -0.69704694 -0.6807844
000320 fb 11 04 3d 44 62 da bf b4 35 07 bf a1 52 83 3c
       0.03224371 -1.7061238 -0.5281632 0.016030611
000330 11 d4 34 bf 3c 33 81 bd 65 1f 1d 3f 9d d6 48 3b
       -0.7063609 -0.063086 0.6137603 0.0030645498
000340 e4 ea 65 3e 09 3b 90 3f 8c dd 21 3f d7 a1 e1 3e
       0.22452885 1.1268016 0.6322868 0.44068787
000350 59 fc 1b 40 b6 79 a8 3d 9f 69 84 3c 5a 34 30 3d
       2.437277 0.082263395 0.016163645 0.043018676
000360 0c bf 0b c0 0f b2 e2 3e fe 2d 61 bf 6c 97 01 3f
       -2.1835356 0.44276473 -0.87960804 0.50621676
000370 59 be e4 bc da 3d 2d 3f 29 f3 aa 3f e4 86 15 3d
       -0.027922796 0.67672503 1.3355457 0.036505595
000380 ec 07 48 bf 38 b9 33 be a2 92 01 c0 64 62 a9 3e
       -0.7813709 -0.17551124 -2.0245748 0.3308288
000390 c5 8f 71 3f 34 ba 9a bf d6 0f 24 bf 70 1e f2 3b
       0.9436 -1.2088075 -0.64086664 0.0073888823
0003a0 07 fc 4d 3f 75 aa 38 bf c4 46 3e bf 95 9e 75 bc
       0.8046269 -0.72135097 -0.7432673 -0.014991422
0003b0 9b 58 29 bf f5 3d 20 bf 01 53 78 40 89 17 54 3d
       -0.66150826 -0.6259454 3.8800662 0.051780257
0003c0 e7 5e 58 bd 77 56 23 3f 76 a4 1c 3f 0d 6d 0e 3e
       -0.05282488 0.6380381 0.6118845 0.13908787
0003d0 f5 ed 0e 3f 2d 8c ab bf 32 db 98 bf e2 fe ea 3e
       0.55831844 -1.3402153 -1.1941893 0.45897585
0003e0 be 85 bf ba ff 20 7f bf 86 fd 14 bf bf 4c 16 3e
       -0.0014612002 -0.99659723 -0.58199346 0.14677714
0003f0 84 69 2a 3d db 90 12 3f e8 1c 67 3f cd 5b 0b 3f
       0.041604534 0.5725228 0.9027848 0.5443695

fc.4.bias f4 [128]
000000 70 3e 99 3e 25 45 17 3d b1 31 a4 bd 94 05 4a 3c
       0.2993045 0.036931176 -0.080172904 0.0123304315
000010 5d 48 30 3e ac 2e 09 bc 10 58 98 bd 20 24 b6 3c
       0.17215104 -0.008372944 -0.074386716 0.022234023
000020 8e 0f 3e 3e bd 26 2c 3e 61 49 2a be a1 7e 6c 3e
       0.18560621 0.16811652 -0.16629554 0.2309518
000030 e5 f6 0d 3e 3e 28 32 be 33 1a 78 3d 8c 25 7e bb
       0.13863714 -0.17398164 0.06057186 -0.0038779704
000040 f4 31 53 be e6 82 46 3e 15 b5 3b bd 2e 6b 6e 3e
       -0.20624524 0.19385871 -0.04582699 0.23283073
000050 1c 75 66 3e 69 56 3d be c4 a9 42 be 75 b4 2e be
       0.22505611 -0.18489994 -0.19010073 -0.17061026
000060 c6 08 3e 3c 43 be 12 3e 8a 7a a8 3d 6b 1e 8a 3e
       0.011598771 0.14330392 0.082264975 0.26976332
000070 a7 aa a3 bd 31 54 38 3e 4a 40 dd bd de 0d 97 3c
       -0.07991534 0.18000866 -0.10803278 0.01843923
000080 2d e1 d9 3a 21 6d a8 bb 9f 39 2e be 49 56 b4 bc
       0.0016622894 -0.0051399623 -0.17014168 -0.0220138
000090 af 64 4d be 4d 56 a6 3d 6a ab a5 bc 47 81 a2 b9
       -0.20057939 0.08121929 -0.020223338 -0.00030995367
0000a0 95 3d 25 be c3 e6 73 3e 12 d8 4c 3e b4 c8 26 3e
       -0.16136773 0.23818497 0.200043 0.162875
0000b0 a4 d5 1b bd 44 24 27 be b0 72 ab 3d cc 8a 24 be
       -0.03804554 -0.16322428 0.08371484 -0.16068572
0000c0 78 10 d0 3e e7 67 93 bd 4e c0 22 be 53 d1 08 3e
       0.40637565 -0.07197552 -0.15893671 0.13361101
0000d0 71 7a 0e 3f bd 78 1c 3c 7e ec d6 bc 08 a1 63 bd
       0.5565558 0.009550271 -0.026235815 -0.055573493
0000e0 a4 c6 1a be 59 da 0f bd 91 97 25 be 16 49 dc 3e
       -0.15114838 -0.035120342 -0.16171099 0.4302451
0000f0 20 fc 7c 3e 33 97 81 bc 13 f4 1c 3e 3a 80 25 be
       0.24705553 -0.015819168 0.15327482 -0.16162196
000100 ba 89 b7 3d e2 fc 70 be 4c 56 94 bd 18 52 0d be
       0.08961816 -0.23533967 -0.07243022 -0.13800848
000110 fe 0a 61 be d2 9e 53 be af ac 05 bc 8d 26 75 3e
       -0.2197685 -0.20666054 -0.008158847 0.23940487
000120 b5 d0 95 bd 68 44 f1 bd 73 c6 76 3e 79 14 8c 3c
       -0.07315198 -0.117806256 0.2409914 0.017099606
000130 68 91 68 3e be fe 6d 3e b8 04 f0 bd 2c f5 9b 3e
       0.22711718 0.23241708 -0.1171965 0.3046049
000140 43 47 79 3e f7 a3 ae 3d 78 8f aa 3e ec f2 e6 3d
       0.2434359 0.085273676 0.33312583 0.112768024
000150 3c 31 2f bd 67 cb 9b 3e 77 f8 1d be e3 97 49 bd
       -0.042771563 0.3042862 -0.15426813 -0.049217116
000160 7a b0 9f bb 94 42 87 3c 72 51 01 3e 39 11 1d 3e
       -0.0048733326 0.01651124 0.12628725 0.15338601
000170 fc 22 2f bd 4f fb 18 be 50 f8 4a 3e f2 a4 ee 3d
       -0.042757973 -0.14939617 0.19821286 0.116525546
000180 4d ea 04 3e f5 27 22 3e 00 4a 0d 3e e0 a0 bc 3d
       0.12980004 0.15835555 0.1379776 0.09210372
000190 6f fc 3a be f2 1d 4e 3e 8f c0 92 3e e2 11 13 be
       -0.18260358 0.2012861 0.28662536 -0.1436229
0001a0 db 43 89 ba be 34 41 3e 37 20 f5 bd d4 b8 14 3e
       -0.0010472493 0.18867776 -0.11969035 0.14523631
0001b0 89 43 7b bd cd 08 80 3d 59 94 d8 bc f8 67 2e 3d
       -0.061343703 0.062516786 -0.026437925 0.04257962
0001c0 f1 40 5e 3e db 1a 89 3d a2 52 86 3e c8 c6 21 3d
       0.2170446 0.066945754 0.2623492 0.039496213
0001d0 04 10 a4 3b 04 06 9a 3d 73 20 ec 3d 17 08 9f 3c
       0.005006792 0.07520679 0.11529627 0.019413037
0001e0 6c cb 54 3e 06 37 3d be 32 03 75 3e 80 ff 6f 3e
       0.20780724 -0.18478021 0.23927 0.2343731
0001f0 5b c2 3f 3e 53 3c 2a 3d dc e0 6a 3e 81 2b 7a bd
       0.18726484 0.041561436 0.2293734 -0.061076645

fc.6.weight f4 [3, 128]
000000 29 18 61 c0 7d c4 2f 3d 89 68 a8 bf d9 32 13 c0
       -3.5170996 0.042911995 -1.3156902 -2.2999785
000010 69 e6 13 3f cb a0 c0 bf 5f c6 be bf 64 27 9f bd
       0.57773453 -1.504907 -1.4904288 -0.07771185
000020 10 01 0f 3f f6 60 ee be 87 01 36 bf 1d fd 06 3f
       0.55860996 -0.4655835 -0.7109608 0.5272997
000030 33 66 65 3f 44 d4 9e bf 4a eb 00 c0 57 a3 aa 3d
       0.8960907 -1.2408528 -2.014361 0.08331936
000040 75 38 a5 bf 9e 87 43 3f 0f 38 be 3c 3e 0f 21 3f
       -1.2907854 0.7637881 0.02322009 0.6291388
000050 4b a4 c3 3e 08 93 45 bf 2c 94 54 bf 31 28 6e bf
       0.38211283 -0.77177477 -0.8303859 -0.9303008
000060 11 92 9f 3d 91 92 22 3f 5d 47 d5 bf 99 2a e5 3f
       0.07791532 0.6350489 -1.6662403 1.7903625
000070 70 c2 9f bf 2a 0e 0b 3f c7 e3 88 bf e7 90 fc bf
       -1.2481213 0.5431849 -1.0694512 -1.9731721
000080 19 e5 5e c0 2b 71 d0 bf a2 13 71 bf 3d c7 1d bd
       -3.482733 -1.6284536 -0.9417058 -0.038520087
000090 c8 f0 bd bf 4f 4c a4 3e eb a1 81 3d e4 3a 9f ba
       -1.4839106 0.3208947 0.063297115 -0.0012148288
0000a0 fc 8a 83 bf 83 8f ff 3f 4c a6 13 3f dc e3 54 3f
       -1.027679 1.9965671 0.57675624 0.83160186
0000b0 74 9e 6b 3d 1b c0 8f bf c3 c7 0b 40 e8 b8 a1 bf
       0.05752416 -1.1230501 2.1840675 -1.2634554
0000c0 d9 8f 5c 40 1e 9e 7e bf 0c e1 80 bf 01 13 07 3f
       3.4462798 -0.9946002 -1.0068679 0.5276337
0000d0 0b 09 ec 3f 78 31 aa 3d 7f 23 1a 3d a1 8d 0f 3d
       1.844026 0.08310217 0.037631508 0.035047177
0000e0 53 0b 8a bf bd f5 00 bb 2a 4d b0 bf c4 9a 48 c0
       -1.0784706 -0.0019677721 -1.3773549 -3.1344461
0000f0 f0 a9 24 3f 97 eb f2 3c b6 e5 24 c0 cc 31 86 bf
       0.64321804 0.029653354 -2.5765204 -1.0483947
000100 81 18 19 c0 eb 92 d1 bf 2e a4 9f bf 93 37 84 bf
       -2.3921206 -1.6372961 -1.2471979 -1.032946
000110 bf 4b a3 bf 99 bb 5b bf 45 47 0b 3d a5 60 36 c0
       -1.2757491 -0.85833126 0.034003515 -2.8496487
000120 aa 22 81 bf 3d c6 81 bf 8c 8a bd 3e 14 ed a3 bc
       -1.0088704 -1.0138623 0.37019765 -0.020010509
000130 11 7f f8 3e 6f d9 00 3f a1 7b 90 bf 6a b4 f9 3e
       0.48534444 0.5033178 -1.1287729 0.48770458
000140 10 27 5b 3f c0 84 d1 bf d2 6a 1d c0 75 58 01 3f
       0.8560648 -1.6368637 -2.4596448 0.505256
000150 a0 55 a9 bd 56 16 e2 3e 7e 62 8e bf 84 26 82 ba
       -0.08268285 0.44157666 -1.1123807 -0.0009929691
000160 75 4d 11 c0 d5 e6 d1 bf 4e f7 39 3f dd 9b 4d 3f
       -2.2703526 -1.6398569 0.7264298 0.80315953
000170 fd cb db bf f5 86 b3 bf fe da 34 3f 57 2f e5 3e
       -1.7171627 -1.4025561 0.70646656 0.4476268
000180 da ed 3b 3f c9 a5 28 3f 3c db 16 3f b7 1c ae bf
       0.7340981 0.6587797 0.58928275 -1.3602513
000190 22 f6 93 bf ed af 34 3f 47 2a 13 3f 79 79 a7 bf
       -1.1559489 0.7058094 0.57486385 -1.3083946
0001a0 ac 88 a9 3e e5 12 10 3f 16 a1 5b bf b4 8c 22 3f
       0.33112085 0.5627883 -0.8579267 0.63495946
0001b0 3f ad 21 3d 44 64 dd bf 20 63 e0 bf 55 b8 db bf
       0.03947186 -1.7296224 -1.753025 -1.7165629
0001c0 62 96 a4 3d b3 d8 ac bf cf b4 2e 3f 04 5f bd be
       0.08036496 -1.3503631 0.6824464 -0.36986554
0001d0 26 05 05 c0 84 56 8e bf d1 d6 28 3f 31 ba d1 ba
       -2.0784392 -1.1120152 0.65952784 -0.0016000924
0001e0 2b 37 1a 3f ae dd 78 bf b8 5e 48 3f 6f fa b5 3e
       0.6024043 -0.97213256 0.7826953 0.35542628
0001f0 6f b5 3a 3f df ff 54 ba fc 6f 39 3f df a3 63 bd
       0.72933096 -0.0008125286 0.724365 -0.0555762
000200 28 3b 6a c0 72 32 bc 3d 1e 08 7a be 3a 99 0e c0
       -3.6598606 0.09189309 -0.24417159 -2.2281022
000210 fe 4a b1 3e 70 67 d7 bf 07 f1 d4 bf 41 98 4f bd
       0.34627527 -1.6828442 -1.6636056 -0.05068231
000220 f3 1f 20 3f 95 95 8c bf 5a 69 50 bf ce 08 2d 3f
       0.6254875 -1.0983149 -0.81410754 0.6759156
000230 85 d7 e5 3f 92 a5 b2 bf 59 2a 3c c0 8b f5 a9 bd
       1.7956396 -1.3956778 -2.9400847 -0.08298787
000240 5b 7d fd bf b9 c7 ff 3e 3d 32 a3 3d cf fe 0e 3f
       -1.980388 0.49957064 0.079685666 0.5585756
000250 db d9 59 3f 68 dd 4d bf f2 31 7f bf 01 6b 91 bf
       0.85098046 -0.80415964 -0.99685585 -1.136078
000260 73 50 14 bd 26 01 66 3f d2 ee 8c bf 57 ad 04 40
       -0.036209535 0.898455 -1.1010382 2.0730798
000270 5e e9 c2 bf 86 36 52 3f f3 ae 94 bf 6a 86 d6 bf
       -1.5227468 0.82114446 -1.161589 -1.675977
000280 77 f2 23 c0 c2 5f dd bf b5 23 96 bf 21 d0 93 3d
       -2.5616739 -1.7294848 -1.1729647 0.07217432
000290 b4 73 f3 bf e1 c0 61 3f a4 7e 29 3f 2a 88 b4 3d
       -1.9019685 0.88184935 0.66208863 0.08815034
0002a0 43 07 ac bf dc 28 0e 40 13 38 5d 3f ed 21 1e 3e
       -1.3439716 2.2212439 0.8641369 0.15442629
0002b0 bd c6 87 3d 53 dc ac bf b0 32 82 3f 8c 23 ac bf
       0.06629703 -1.3504738 1.0171719 -1.3448348
0002c0 51 c7 3b 40 f1 1b 0f c0 c7 18 72 bf 8a 8e 55 3f
       2.9340403 -2.2360804 -0.9456906 0.8342062
0002d0 42 41 af 3f 65 44 d0 3c 0b f4 8a bd 47 80 2d bb
       1.369179 0.025423238 -0.06784829 -0.0026474164
0002e0 05 35 a7 bf 4b 28 66 3d 81 a3 b4 bf de bf 00 c0
       -1.3063055 0.05619077 -1.4112397 -2.0117106
0002f0 db 6b 0d 3f 4a 83 fd 3c 83 f5 17 c0 28 49 b3 bf
       0.552427 0.030946393 -2.3743598 -1.40067
000300 f8 dd 20 c0 7b a3 08 c0 b8 35 b2 bf 94 75 a5 bf
       -2.513548 -2.134978 -1.3922644 -1.2926507
000310 ce cd b8 bf 7f c5 df bf 80 c1 48 bd c1 00 a8 bf
       -1.4437807 -1.7482146 -0.04901266 -1.312523
000320 8f 41 9a bf da ca a3 bf 91 2b 55 3f 9c 3c e7 3b
       -1.2051257 -1.279628 0.832696 0.0070567857
000330 b3 d2 ea 3e 63 1f 07 3e 18 b1 01 c0 90 67 1f 3f
       0.45863876 0.13195567 -2.026434 0.622674
000340 22 fb 19 3f 67 bf ef bf 66 ec 1e c0 7d d0 48 3f
       0.60148823 -1.8730286 -2.4831786 0.7844313
000350 3b c3 35 bc ad 40 17 3f f0 f8 05 c0 5d 4f 91 bc
       -0.01109391 0.5908306 -2.093319 -0.017738039
000360 59 0a 32 c0 27 86 bc bf 22 9d 2a 3f b7 b7 ae 3e
       -2.7818816 -1.472844 0.66646016 0.34124538
000370 0a 18 dc bf d9 a6 b0 bf cc 6b ec 3e 6d eb 51 3f
       -1.7194836 -1.3800918 0.46175992 0.81999856
000380 e0 b1 20 3f e7 cb 01 3f 11 59 37 3f 10 24 12 c0
       0.62771416 0.50701755 0.7162028 -2.283451
000390 66 67 c6 bf 1a 18 97 3e ba 18 96 3e 66 86 01 c0
       -1.5500305 0.29510576 0.2931574 -2.023828
0003a0 12 4d 33 3f 51 f2 3d 3f 45 b9 91 bf f1 51 54 3f
       0.70039475 0.7419787 -1.1384665 0.8293753
0003b0 0e 68 86 3d 99 f2 f5 bf b9 6e cf bf 3e 64 f4 bf
       0.065628156 -1.921466 -1.6205665 -1.9093091
0003c0 83 33 ba bf 72 ae cd bf d4 be 12 3f d6 86 19 3f
       -1.454697 -1.6068861 0.5732243 0.5997137
0003d0 6b a5 31 c0 24 43 86 bf bf 35 31 3f 55 3d 17 bd
       -2.7757213 -1.048924 0.69222635 -0.036923725
0003e0 96 88 f8 3e 0a 1c 68 bf f4 96 e4 3e b1 1d 5b 3f
       0.48541707 -0.90667784 0.44646418 0.8559218
0003f0 01 57 0c 3f b1 2d 76 bd 92 3b fc 3e d3 87 38 bc
       0.5482026 -0.06010217 0.492642 -0.011262852

fc.6.bias f4 [3]
000000 84 b6 8b be ad 89 c8 3c 5e c5 80 3e
       -0.27287686 0.024479711 0.2515058
