checkpoints/ddqn_final_state.pth (torch, 688779 bytes, 8 tensors)

fc.0.weight f4 [512, 12]
00000000: 5a40 00bf 78cb 19c0 8e08 48be 909c 243c
00000010: 7ebc 13bf 7d8f babe 87ab 1bbd 75c5 7cbd
00000020: 805d 40bf 6b7d 1a3f 178c 963e e7bd ffbd
00000030: ff8b 593d 023b f6be 5ca3 5fbe f010 7abd
00000040: f9dd f73c 1a52 293d 9629 28bf a23e 093e
00000050: eff6 2ebe e312 573d d9ff fc3d 0704 f93e
00000060: 8a50 ac3e abd1 c93c e15d fbbd 0b34 e4bd
00000070: 148a 67be effe cebe 0be7 c4be 2b83 abbd
00000080: 5d96 19be b9c9 3d3f 1da7 1b3f 7888 febe
00000090: 8ca4 7b3e 51ca 09bd 3d3b 0fbe b7f8 d63d
000000a0: fbbc 5b3e 16c0 0dbd 35e1 7ebe b5a3 493f
000000b0: dd8a 833d 30f7 e9bd 6466 d5be a9d5 f2be
000000c0: 18bb b73a 2f62 a73d d4fb 8e3d b126 0cbc
000000d0: f03c 3cc0 2eda 07be ed4c 5b3d 84bc 973d
000000e0: c577 223f bd87 333e 5281 6dbe b8aa 78bc
000000f0: 8f35 46c0 217d fcbc 9bf8 9ebd b32f b13c
00000100: b5f0 a13d bbd4 a63c 7728 323d 4ff4 973e
00000110: 455f 16bf 4133 6bbe 6bd2 fa3d 927c 4c3c
00000120: fe80 353e 3b37 d7be 6fdf 9dbd 21ed 98bd
00000130: 3bfd 763e 61d5 d53d ea27 553e e8ec 673d
00000140: 9f0c a13e 58b1 adbf a510 8f3e 448a 2fbe
00000150: 17eb 36be d153 bbbe 54c4 37bd ab2c 933d
00000160: 609b c5bf 7b92 1bbf ad10 17bf 56eb 8c3e
00000170: 5b35 c2bf 3c8f 8a3c 3ba6 27be 35d6 d1bd
00000180: 5ab1 37be 9e5b b0bd a0c6 30bd 3e77 773d
00000190: ffe4 c33d e90e 0dbd 0699 e4bc 40e7 f7bd
000001a0: 961c d8be aec0 923e 2d9e 663f 3abf 003f
000001b0: 6d2e adbb 8d18 ddbd de9d dfbd 780c 77bd
000001c0: 57db fa3c a9bc 4c3d f4a1 c2bb 53f3 d23d
000001d0: 4565 56bf ebb1 1e3f a6f6 29bf 0b36 20bf
000001e0: ec44 1dbf ac83 fcbe 225a 03bf 0e42 41bf
000001f0: 6fa7 c13d 2ed6 05bf 9240 123e 7240 efbe
00000200: 5bfc 96bf a136 443f 3b5b 053e c163 3d3d
00000210: 95c8 c33e d6c4 f5be 2366 933e 3ecb 993e
00000220: 3a91 1fbe 1708 d03d 68a1 8f3e 23bd ac3e
00000230: a9cb 363e 05bb 3dbd 2048 523d 326d 37bc
00000240: b201 96be 89a7 423e 3be0 b6bd 81a3 cac0
00000250: b640 35be b2db 15be a4ae 5bbd aaab 8c3c
00000260: 9203 02bf 0843 263e 50b4 863d 9ab1 803d
00000270: 984d 0ebe c5e6 88be 73d5 9cbe a66c 40be
00000280: f0b7 053c 2922 d4bc ada5 54be 90cb 64bd
00000290: ea70 4f3f 7224 eb3e 3efd 5fbe 68fd 8e3d
000002a0: 717d 863c fb96 213c 055c c83e fd46 d23e
000002b0: e274 35bd d168 8cbe c483 15bd d74d 59be
000002c0: 156a 9bbe 937c 3dbf 1e6f 4abe 5eb7 c73d
000002d0: 609b 743e 51e6 3a3e 4ae2 c03d 4396 1c3d
000002e0: 601f 09bd f2b9 08be 3cae a2bd 9584 143e
000002f0: b70f 7dbd 8d13 293e 3e24 813f 07c5 113e
00000300: d9c4 053e 4715 493e 628c 853d add5 a8bd
00000310: 656e e0bd 115c 4cbe 12b1 4fbd 5174 b7bc
00000320: 1d2c 93bd 78af 72bf dad2 41be 9e58 123d
00000330: 1e8a 3cbf ebeb 68be 7c4e ab3d 9193 1ac0
00000340: 65d2 023e 3104 6a3d 18e0 aebf 02e0 82be
00000350: cfdb 30bf 95a1 8a3d 21d3 a03e a69d 3cbe
00000360: 2ae5 adbe 2ee8 c6be c153 70bf a86e edbe
00000370: f575 d0be eec9 fcbe 0738 e9be 1997 3abf
00000380: 0571 00bf 2f4c e8be 338e 023f 1e2c ebbc
00000390: 2f43 153d 193e a03d f40f b4be 862a 30bf
000003a0: 358f 7dc0 3f37 34bf 02ea b3bd d466 fdbc
000003b0: 0772 90be cb84 64be 8563 883c a13a 313e
000003c0: 6603 88be 6cc8 a63d 45ae 153e e619 083d
000003d0: 33e1 073d 7308 e23d a11b 053e 64c0 c83d
000003e0: 407d 14bd 3997 17bf 6cab d6be 79b2 b0bd
000003f0: 2c9d e63d bb4b d2bd bb13 a0bc 54b3 c1bd
-0.5009819 -2.4030437 -0.19534513 0.010047093 -0.5770949 -0.36437598 -0.038005378 -0.061711747
-0.7514267 0.6034762 0.29403755 -0.12487393 0.053112026 -0.48091894 -0.2183966 -0.06105131
0.030257212 0.041338064 -0.65688455 0.13402799 -0.17086385 0.052508246 0.123534866 0.48635885
0.33655196 0.02463611 -0.12273765 -0.11142739 -0.22611266 -0.40428874 -0.38457522 -0.08374628
-0.14998765 0.7413593 0.6080187 -0.49713492 0.24574488 -0.03364021 -0.13987441 0.10496657
0.21458809 -0.034607016 -0.24890597 0.7876542 0.064229704 -0.114241004 -0.4167968 -0.47428635
0.001401755 0.08173024 0.06981626 -0.008554147 -2.9412193 -0.13266823 0.05354016 0.074090034
0.63464004 0.17532249 -0.23193863 -0.015177421 -3.097019 -0.030821385 -0.077622615 0.02162919
0.07907239 0.02036511 0.04349562 0.2967858 -0.5873912 -0.2296877 0.12247165 0.012480872
0.17724988 -0.42034325 -0.07708632 -0.07467104 0.24120037 0.104410894 0.20816007 0.056622416
0.31454942 -1.3569746 0.27942386 -0.17142588 -0.17863117 -0.36587384 -0.044864967 0.07186254
-1.5438042 -0.60770386 -0.5900982 0.27523297 -1.5172533 0.016914003 -0.16372006 -0.10245935
-0.17938748 -0.086112246 -0.043158174 0.060416453 0.09565162 -0.034438048 -0.027904999 -0.12104654
-0.4220931 0.28662628 0.9008511 0.5029179 -0.0052850754 -0.10795698 -0.10918783 -0.060314626
0.030622168 0.049984608 -0.0059397165 0.10300317 -0.83748275 0.6199023 -0.6639198 -0.62582463
-0.6143329 -0.49319208 -0.51309407 -0.75491416 0.094557635 -0.5227994 0.14282444 -0.46728855
-1.1795763 0.7664586 0.13023083 0.04623771 0.3823897 -0.48001736 0.28788862 0.30037874
-0.15582743 0.10157793 0.2805283 0.3373805 0.17851128 -0.046320934 0.051338315 -0.011195468
-0.29298168 0.19009222 -0.08929487 -6.332459 -0.17700467 -0.14634588 -0.053633347 0.0171717
-0.507867 0.16236508 0.06577361 0.06283875 -0.13896787 -0.26738563 -0.306316 -0.18791446
0.00816153 -0.025895195 -0.20766325 -0.055858195 0.8103167 0.45926243 -0.21873948 0.06981927
0.016417237 0.009862657 0.39132705 0.41069785 -0.04430092 -0.2742372 -0.036502615 -0.212211
-0.30354372 -0.7401821 -0.1976895 0.097517714 0.23887396 0.18251921 0.09418161 0.03822924
-0.033477187 -0.13352183 -0.07943389 0.14503701 -0.061782565 0.16511364 1.0089185 0.14235316
0.13063373 0.19637023 0.065209165 -0.082438804 -0.10958556 -0.19956996 -0.050705977 -0.022394331
-0.07186148 -0.94798994 -0.1892809 0.035729043 -0.7364825 -0.22746246 0.08364579 -2.4152567
0.12775572 0.057132903 -1.3662138 -0.2556153 -0.690854 0.067691006 0.3141108 -0.18419513
-0.339639 -0.38849014 -0.938778 -0.46373487 -0.40714994 -0.4937281 -0.45550558 -0.72886807
-0.50172454 -0.45370623 0.5099823 -0.02870756 0.036441024 0.07824344 -0.3516842 -0.68814886
-3.9618657 -0.703968 -0.08784868 -0.030932821 -0.28211996 -0.22316281 0.016649017 0.17307521
-0.26565093 0.08143696 0.1461726 0.033227824 0.03317375 0.11036768 0.12998821 0.098023206
-0.03625226 -0.5921512 -0.4192766 -0.08627791 0.11260447 -0.10268351 -0.019540658 -0.09458032

fc.0.bias f4 [512]
00000000: e4e1 f9be 9fe5 6ebf 9eaf 233f ae83 253f
00000010: 2ca7 83be ea3c 3e3f ae8e 093e eb7c b6be
00000020: dd10 b6be ff6a 6cbd 36e1 ad3e 3f3e b13e
00000030: 44ee 663e e524 c43e bb78 153e 30ed 823f
00000040: 7085 a4be c822 b0be 309d 09bf e0e7 b23e
00000050: a361 0c3f 513e 8c3d 8888 1bbe e3bc 093f
00000060: 7964 c7be 0432 ea3e 89f7 5b3e 92f6 153f
00000070: 475f a63e e139 b3be 9084 6dbf ca72 d53d
00000080: fa25 1b3f 95d6 d13e 0a60 abbe 37a9 fdbd
00000090: 66cf 213e d63b 063f d760 243e bb7d 973d
000000a0: 0a0d 0c3f 9334 533f 194b d83e 8a3f 6c3e
000000b0: ec51 06be f9a8 69bd bf0b 093e 84c5 75be
000000c0: fb8a f03e ed10 3f3e 94f8 7cbf d716 513e
000000d0: f3e1 f93b a26c db3e 56b0 b9be 3778 9cbd
000000e0: fc2d dbbc c136 bcbe e8b6 a93e 3e87 1b3f
000000f0: 6ccd bc3e 9f7d f43e 6f33 753e 67e2 48bf
00000100: 548a ae3e 8eb9 c43e da69 123f c87b ed3d
00000110: 4116 0c3f e0a6 063e 3321 22bf 87fc 29bf
00000120: 2682 84bf f466 c63e 4e34 b63e ac93 423c
00000130: c66a 9d3e e283 8e3d a1ca a43e 0b6d 9bbb
00000140: d0be d4bb 82b3 0dbf 1a3f 773e fec4 c2be
00000150: d866 dd3d 2480 63bd d14c c83e ed70 80be
00000160: 3951 29bd 2772 6f3e 4732 c13b 4194 92be
00000170: 9805 81bd 60c9 2ebb 7a4f 3e3f 8314 1fbd
00000180: de21 28bf d11b ec3c 3372 08be c347 ccbe
00000190: 841b c5be 9f5f 3e3e 1d64 3a3f dfef b43e
000001a0: 80d0 6fbd 08cf f93e 23ba 33bd 6c1d 91bd
000001b0: ab28 e13e 054d 74be d5ae 833e f27c 3dbf
000001c0: a362 e6bd 0ddb 8b3e a41f 83be b7b5 783e
000001d0: f00d c03e 4e8e 103f ab60 a2be 3e8d a93e
000001e0: f49f 85bc d3d3 263f 03c7 77be 7ee7 aebe
000001f0: 7761 e63e a059 7f3e 7166 813e 6798 a83e
00000200: df16 ac3e 0a2f 2b3f f9e4 d63d 649d 703d
00000210: ba9e f9be 9d7e 3bbf 563d ef3e 2ff9 9a3e
00000220: 9bd5 a33e 908c 8dbe d1ef 433f ef8b d6bb
00000230: 4114 11bd f473 873e 5a28 b33d 4123 ecbe
00000240: 0021 2fbe e7c1 523d 9ee5 8cbe 0713 00be
00000250: 009e e53e 4f33 313f a5d8 d2bd ac1a 203e
00000260: 2c06 a03d 9a77 cb3e f3cf 473d 0ea9 bd3e
00000270: 5729 9fbe ef1f e03e b157 a43e a994 49be
00000280: a734 69be f1a6 b2bd b50f 273e ab27 d0bd
00000290: 0aa2 9a3e 6bb8 9bbd 0959 2a3e 0875 7bbe
000002a0: 17e7 c23e c4e5 cdbd 9c2a 34bf 090e 91be
000002b0: 4309 2b3f c57c f1bd 2512 7fbd 5d03 3fbe
000002c0: d611 a43e 1c62 a1be aba0 b1bd 6ae5 533e
000002d0: ed8e 2c3e f023 30be df53 0e3f e527 4a3e
000002e0: 7a32 a73b 439c ed3d 85ed 7c3e 196e 043e
000002f0: 6902 083f e445 d0bd 9712 833d 09d1 18be
00000300: 85b2 1a3f b072 e13d b92a 943e 5689 07be
00000310: 4a3e ad3e 23e9 503e 5802 a83d ab06 aa3d
00000320: 309c adbd 92e2 943e a8dc 843e bc4c 483d
00000330: 17c2 5e3f 5c33 453e 6bdf ae3e 658c 1a3e
00000340: 2f64 813e a255 573e 2e07 d0be c73f 30be
00000350: 4689 31bf 99d1 ea3e 4cff 443e 6f4c cabe
00000360: b6d8 1d3f 23e3 2bbe 611b a4be 9223 97bd
00000370: a797 823e 3d67 fd3e 8861 8f3d 34d8 0fbf
00000380: 0cd0 3cbf 9dfe cb3e e67e 413e 5615 3abd
00000390: 91b2 03bf dbc0 983e ec48 40bf ef30 fa3c
000003a0: 62d8 af3e 7ce4 f63e f4b1 a4be e0fc b4be
000003b0: 2f25 f4bd 9bbe 853e 3b5f f33e d543 ddbe
000003c0: 036a 623e 908a f93e 4fa4 df3d 8186 d43d
000003d0: a8ea 4f3e 6c65 a2be 79e8 f4be 3248 2e3f
000003e0: 1d4e 993c 9bba 81bd b47e f3be 1dbd 283f
000003f0: 650e 89be 215d 2b3f 9014 313f 17ab 88be
-0.48805153 -0.93319124 0.63939846 0.6465405 -0.2571348 0.743117 0.13433334 -0.3564218
-0.3555974 -0.057719227 0.33960885 0.34617803 0.22551829 0.38309398 0.14596836 1.0228634
-0.32133055 -0.34401536 -0.53755474 0.34942532 0.5483648 0.068478234 -0.15188801 0.53803843
-0.38943842 0.45741284 0.21481146 0.5857936 0.32494566 -0.35005096 -0.927804 0.10422285
0.6060482 0.40984026 -0.3347171 -0.12385791 0.15801772 0.5243505 0.16052566 0.07397028
0.54707396 0.82502097 0.42244795 0.23071113 -0.13117188 -0.05704591 0.13383387 -0.24001127
0.46981034 0.186588 -0.988168 0.20418869 0.007625812 0.42856318 -0.36267346 -0.07640117
-0.026755325 -0.36760524 0.3314736 0.6075324 0.36875474 0.4775209 0.23945402 -0.7847046
0.3408991 0.38422817 0.57192767 0.11595875 0.54721457 0.13149595 -0.6333191 -0.6640095
-1.0352218 0.38750422 0.3558678 0.011876028 0.30745524 0.069587484 0.32185844 -0.0047432235
-0.006492473 -0.5535203 0.24145165 -0.38040918 0.108106315 -0.055542126 0.39121106 -0.25086156
-0.041337226 0.2338339 0.005895886 -0.28628734 -0.06299895 -0.0026670322 0.7434002 -0.03883792
-0.6567668 0.028821858 -0.13324814 -0.398985 -0.38497555 0.18591164 0.7280901 0.35339257
-0.05854845 0.48790765 -0.043878686 -0.0708569 0.4397634 -0.23857506 0.25719324 -0.74018776
-0.11249282 0.2731556 -0.25610077 0.24288069 0.37510633 0.5646714 -0.31714377 0.33115572
-0.016311623 0.6516697 -0.2419701 -0.3416099 0.44996235 0.24936533 0.2527347 0.32928774
0.336112 0.6686865 0.10492892 0.05874385 -0.4875391 -0.7324007 0.46726483 0.30268237
0.31998906 -0.27646303 0.76537806 -0.006547443 -0.035419706 0.26455653 0.08747931 -0.46120647
-0.17102432 0.05145445 -0.27518934 -0.12507258 0.44847107 0.69218916 -0.10295228 0.15635175
0.07813677 0.39739686 0.0487823 0.3704304 -0.31086227 0.43774363 0.32098153 -0.19685616
-0.22773992 -0.08723248 0.16314586 -0.10163816 0.3020175 -0.07603534 0.16635527 -0.24556363
0.38066933 -0.1005359 -0.70377517 -0.2833102 0.6681101 -0.11791376 -0.062273163 -0.18653627
0.32044858 -0.31520164 -0.08673223 0.20692983 0.16851397 -0.17201209 0.5559673 0.19741781
0.005102453 0.1160207 0.24699982 0.12932624 0.5312868 -0.101695806 0.0640003 -0.1492349
0.6042865 0.11008203 0.28938845 -0.13235983 0.33836585 0.20401435 0.08203572 0.08302053
-0.08477056 0.2907911 0.25949597 0.048901305 0.8701491 0.19257873 0.3415483 0.15092619
0.25271747 0.2102876 -0.40630478 -0.17211829 -0.6935009 0.45863035 0.19238013 -0.3951144
0.616588 -0.16785865 -0.32052138 -0.073798314 0.25506327 0.49492827 0.070010245 -0.56189275
-0.73754954 0.39842692 0.18896064 -0.045430504 -0.51444346 0.29834637 -0.7511127 0.030540911
0.34344774 0.48221195 -0.32167017 -0.35349178 -0.11921155 0.26121983 0.47533593 -0.43215814
0.22110753 0.48738527 0.10920011 0.10377217 0.20304358 -0.31718004 -0.47833613 0.6807891
0.018714005 -0.0633442 -0.47557604 0.65913564 -0.26768795 0.6693898 0.69172 -0.2669303

fc.2.weight f4 [256, 512]
00000000: 96e0 d8be cc1e 84be 2bb7 b0bd cbc9 8bbe
00000010: ac4e 413e c77d 673f f0ec 02be 7b65 993f
00000020: f381 f13e 0c46 06bf b7f0 a33e f81a 3f3e
00000030: dfab a63f 93d7 993d 6308 823e b0f6 46be
00000040: 0d48 18bf bb34 2f3e f116 883f 1147 af3e
00000050: b09b ec3e 4516 a7bd 7df9 0d3f 7a01 323f
00000060: ffa6 08c0 960c 3cbe b1ca a2bd e0d1 e53d
00000070: 5ecb 413e f2d9 c3be a8c8 0bc0 49e8 4f3e
00000080: b37f 423e 69b8 ea3e a162 1abe 01e8 203d
00000090: 5de5 38bb 4231 073d 7abd 26be d2cf 1f3f
000000a0: d047 6b3e 2d3a 13be 5748 7d3e 5b98 ccbd
000000b0: d081 b63d 09f4 173f 0a99 82bd be37 5ebe
000000c0: 28a3 9a3e 4450 26bd df18 28c0 bee0 503e
000000d0: cdfc 1dbf efd5 bc3e e542 d4be bf52 df3d
000000e0: dda0 d3be af23 a3bf bf0a 05be 1768 933e
000000f0: 861b 063e eeae 963e f54b 6b3d 7d7e 50bf
00000100: 7bcd d23d 8e86 f13d fd8f 8e3e ad74 1a3d
00000110: 0745 3fbd c062 d6bd 0342 0d3f f313 5bbe
00000120: 5bbd 51bf 56a7 a13e 8303 dcbe a552 c33f
00000130: 6716 9d3f d5e4 04bf 125a 6d3e ff3e e5bd
00000140: d70d d2bd 2ff1 173f cd27 89be 98ab 97be
00000150: 09da bb3c f5a5 2cbe 83fd d53e e23f d3bf
00000160: f3d4 a3be c136 63be a40e 82bd 9b36 52bc
00000170: 1d70 3cbd 4cc2 b73f 524c 793e 1625 da3e
00000180: 69c5 28bf 5793 a8bd 2143 113e 3446 97bf
00000190: 51e8 2ebf 99ff 2bbe 825b 73be f0e2 df3e
000001a0: eb76 91bf 83d7 443e afe8 553e 06bc 94be
000001b0: 875a ab3e d824 613e 37fb 5c3d fcce 29be
000001c0: 4504 e3bd e9f4 0d3e 5b66 b23e 2683 01bf
000001d0: 0e3a b03d fc11 4abe 0ace 9c3e 442b 76bc
000001e0: 0bf5 4c3e c491 c13e 1da4 f43e 7822 7e3f
000001f0: 9739 bd3e f99f 343e aa9b 0ebe ab77 833e
00000200: 4f39 adbe baf0 293f c9c7 bdbe 7f32 1fbf
00000210: 378e 753e 90a6 3dbf ffa8 26bc e99c ce3e
00000220: 3cfc b43d 6052 b4be e03e a13e a5e8 f93d
00000230: 2632 86bc c1db c13e 4076 bd3e 648a 2b3f
00000240: ea00 813f 7a3b 493f d236 bfbe a7a1 cbbe
00000250: 76a2 c73e b3b5 183f c050 03bf 8004 833e
00000260: 7661 8ebe cc5d b1bd 767a 78bd 4807 d73e
00000270: 60a0 7a3f 0d1a 6e3e 5f5e e2bd dcc5 253d
00000280: b21e 883f 8fb7 ba3f 5444 1dbe 883d 8a3f
00000290: 1efb a33f 54bb c9be 1a6d 8d3f 2786 d2be
000002a0: 9578 333e bcab 883e 9769 d7bf 37d4 1f3e
000002b0: 109b 1b3e 1b83 8f3e 2333 4d3f 58ed 5e3f
000002c0: 0e79 773f 8fe8 893e 2444 c43e 001a 223c
000002d0: 70f8 843e 8c0c 3b3d a1ad 843e a589 5d3d
000002e0: cd3d 973d ce0b 56bf cf38 5fba 0948 883e
000002f0: 04b2 ccbe 0cf6 59be dcef a63d c3ff 8b3e
00000300: 3266 c43e 1bd9 eb3b 40da c7bf 401f 203f
00000310: 303d d93e ecd9 64bd ca2b 033f 086e bd3e
00000320: 0100 97bd b308 61be 8739 103f c281 8a3d
00000330: 8636 8e3e d3e7 a0be 356c 4e3e cc4b 133c
00000340: a8ff f33d 5de9 993e ff66 ec3e 99dc 0840
00000350: d9d3 53bf c8eb e1be d2a2 25bc 019c 1bbe
00000360: cd9f 453e d995 45be ea7c f5be 1939 79bd
00000370: 69bf 793e 2733 373e 7b93 ce3e f481 d9bd
00000380: 0b96 55c0 b11d 6c3e 0475 803e 2980 783e
00000390: ca90 a83f 8887 b33e d01d e43f a83c 2e3f
000003a0: 4631 7d3e 9040 89bd 82ac b8bd 86c9 aabf
000003b0: d3c3 913f 494c aa3e 316e c13f 30c8 153d
000003c0: b1b7 823e 3977 1a3e 0b78 94be f2dd 493d
000003d0: 6cda 413d c7f2 793e c20a 4f3f 4630 3cbe
000003e0: ecc0 54bf d067 2f3c 511b 98be 0776 d8bd
000003f0: 8a80 31be 8438 383e 0d40 89be 1cfb acbd
-0.42358845 -0.25804746 -0.086286865 -0.27302393 0.18877667 0.90426296 -0.12785697 1.1984094
0.47169456 -0.52450633 0.32019588 0.18662632 1.3021201 0.07511821 0.25397024 -0.19430041
-0.5948494 0.17109959 1.0632001 0.34233907 0.4621253 -0.081585445 0.55458814 0.69533503
-2.1351926 -0.18364176 -0.079488166 0.11221671 0.18925235 -0.38252217 -2.184122 0.20303454
0.18994026 0.4584382 -0.15076686 0.039283756 -0.0028212883 0.03300596 -0.16283217 0.62426484
0.22976613 -0.14377661 0.24734627 -0.09989997 0.089114785 0.59356743 -0.06376846 -0.21700951
0.30202603 -0.04060389 -2.626518 0.20398232 -0.6171387 0.36881968 -0.41457286 0.109044544
-0.41333666 -1.2745265 -0.1299238 0.28790352 0.13096437 0.29430336 0.057445485 -0.81443006
0.102930985 0.117932424 0.2784423 0.037708927 -0.04669669 -0.10468054 0.5517885 -0.21394329
-0.8192956 0.3157298 -0.4297143 1.5259596 1.2272462 -0.5191167 0.2317889 -0.11193656
-0.10256546 0.5935239 -0.26788178 -0.29623103 0.022931116 -0.16860183 0.41794977 -1.650387
-0.31998405 -0.22188856 -0.06350449 -0.012830402 -0.046005357 1.435617 0.2434552 0.4260642
-0.65926224 -0.08231228 0.14185764 -1.1818299 -0.68323237 -0.16796722 -0.23765376 0.43727827
-1.1364416 0.19222836 0.20889543 -0.290497 0.33467504 0.21986711 0.053950515 -0.16582865
-0.11084799 0.13862957 0.34843716 -0.5059074 0.08604823 -0.19733423 0.30625945 -0.015024964
0.20015351 0.37806523 0.47781458 0.99271345 0.36958 0.1763915 -0.13926569 0.25677237
-0.33832785 0.66382945 -0.37066486 -0.62186426 0.23980032 -0.7408228 -0.010172128 0.40354088
0.088371724 -0.35219097 0.31493282 0.122025765 -0.016381335 0.3786297 0.3700428 0.6700804
1.0078404 0.7860638 -0.37346512 -0.39771768 0.38991135 0.5965225 -0.5129509 0.2558937
-0.27808732 -0.086604685 -0.060663663 0.41997743 0.9790096 0.23252125 -0.11053156 0.040471897
1.0634367 1.4587268 -0.15358096 1.0800028 1.281101 -0.39400733 1.104892 -0.41117975
0.17526467 0.26693523 -1.6829098 0.15608297 0.1519587 0.28029713 0.80156153 0.8708091
0.9666909 0.2693524 0.38333237 0.009893894 0.25970793 0.045666263 0.25913718 0.054086346
0.073848344 -0.8361176 -0.000851524 0.26617458 -0.39979565 -0.21285266 0.08151218 0.27343568
0.3835922 0.007197512 -1.561348 0.62547684 0.42429495 -0.05587189 0.5123869 0.3699801
-0.073730476 -0.21975975 0.5633778 0.067630306 0.27775973 -0.31426868 0.20158465 0.008990239
0.11913997 0.30060855 0.4617233 2.1384642 -0.8274513 -0.441252 -0.01010962 -0.1519623
0.1929924 -0.19295444 -0.47946864 -0.06084547 0.24389423 0.17890607 0.40346894 -0.1062049
-3.337283 0.23058201 0.25089276 0.24267639 1.3169186 0.3506434 1.7821598 0.68061304
0.24725828 -0.067017674 -0.09017278 -1.334275 1.1387886 0.33261326 1.5111753 0.036567867
0.2553077 0.15084542 -0.28997836 0.04928393 0.047327444 0.24409018 0.8087579 -0.1837779
-0.83106875 0.010705903 -0.2970834 -0.10569387 -0.1733419 0.17990309 -0.2680668 -0.08446333

fc.2.bias f4 [256]
00000000: f0ba ba3e 687b e23d 1059 b53d 34fc 413e
00000010: 3156 7a3d f38e 4a3d df39 1e3e 4aea 753d
00000020: 8ca6 8b3b ddba 403d 42ac 183e 3e4f da3c
00000030: 68c8 7abc 15db 733c b620 f33d aa6b e43c
00000040: 5b70 813d 278a 91bd 5977 743e e1e9 563e
00000050: a34d 083d f453 a83d 6780 813d 976f 9b3e
00000060: 5f9f 193e db11 29bd a0d7 083e 8f3e 443e
00000070: fdb6 233e d037 413e 9aff 373e c433 073e
00000080: 6680 123e b33c 263e 0b18 b0bc f29e 883c
00000090: 6c71 003e 0549 5e3e e0a3 043e 4a83 903e
000000a0: 170b 643e 2f00 e73d b055 c53d 6f2c 35bd
000000b0: f84d 3d3e 60f4 843e ae3f 35bd e9bc 80bd
000000c0: 58e2 7f3e be7b dfbb f6fc 0c3e 85b7 ab3d
000000d0: 8f4c 43be 1a3b 1a3e 30ae 763e e54c f23b
000000e0: 3d5f 973e 3ed6 f23d 796d f23d 00e6 bc3d
000000f0: 1db9 8b3e c97d d9bd f81f 253e 4025 a23d
00000100: 8ed0 693d 6373 853e 2b7a 1a3e c8c1 0e3e
00000110: 1d51 553e 350e b23d 43d8 5a3e 4281 0d3e
00000120: 6b44 5d3e 052e a9bd 4940 f23d f888 213e
00000130: 0d2d 693e 7422 713e 92a2 0dbd 7e79 1a3e
00000140: c06e e03d c0a1 8e3b eec9 603e 9cd9 243e
00000150: 5389 ea3b 425a c0bc 7b35 c9bc 67c3 4fbd
00000160: e9f1 d53d 5005 fdbc 8b16 a63e 9e4c 6a3d
00000170: 9bc1 8f3d 1ce4 713d abd9 4f3e 4691 16be
00000180: 3043 0bbd 7095 833b ed5a 293e 5e22 2d3e
00000190: 8add 833e 6c5b e13e 8631 dc3d 332d 003e
000001a0: c5d3 2b3e d930 5a3e a1bb adbc f7d5 753d
000001b0: eb7a f53d 6bd5 c73c 1950 3f3e 1806 3b3d
000001c0: a1a3 603e b3fe ff3c 1f3f 233e 943c 9bbd
000001d0: 19e1 6c3e 0bb2 e23d f4ef a43d 8ebc 053e
000001e0: 6fa3 2a3d b786 f93c cafa fd3c d642 4f3c
000001f0: cabc a53d 7838 263e f53f 653e 52d4 193e
00000200: 4dd7 0d3e 5e53 a23e f332 363e a13c 863e
00000210: 2ed9 303e 4677 97bc 7faf b93d e90e 8b3d
00000220: 2d6c 2f3e 3fd1 523a 58e0 2b3e d139 eebd
00000230: 3248 093e cd39 eebc 0da6 ae3c c329 953e
00000240: 721d 3e3e 6267 473e a082 273e b23d 863d
00000250: e21e 70bd b5aa 983d b666 64be 4f6e 6b3d
00000260: f92e 8d3e d5ca a43d e5bd 853e 4d44 483e
00000270: a6c6 1d3e d96b 073e 9ff4 753c f7c5 2c3e
00000280: 0339 133e a091 d6bc 3d8d bcbc 4f4a 0dbe
00000290: cbd3 8c3d b14c bc3d d6de 883c ccb2 b13c
000002a0: 96b2 523e de9e 94bc b10b 89be e1ae b03c
000002b0: eff6 d33d 2882 13be a15f 3b3d 8ebf 093c
000002c0: 3799 653e e857 363e 2624 363e ab3a 603e
000002d0: 87ec 903e fdb7 723a 9463 efbc 9654 b23e
000002e0: bc7a 923d 3b55 543e 0c9a 673e 7e93 35bd
000002f0: 195f f13d cdd2 b13d 411f 893e 0144 d8bc
00000300: 9504 a03e baaf f03d 705c d43d 25dd c13d
00000310: 0c0d a23d a615 193c d179 e13d 7b0e 6c3e
00000320: 8c74 893c 1ce1 1e3e 3be6 d03b 4ef9 14bc
00000330: 7177 ed3a 3d9d a13e ec1f d73d acb7 a13e
00000340: 34f9 473c c47b 373e 6cf2 003e 49f0 9b3d
00000350: ffb3 6e3e 9496 21bd 369c a63c 7bfa 81bd
00000360: ba61 373d cd8f 623e 47cd d13c f7bf 1e3e
00000370: fb87 cc3d a454 213e 7bc0 fb3d d955 093e
00000380: b3ae 133e 70c5 683d d2f8 9abc d4d6 85bc
00000390: e679 4fbd b6d9 3dbd 780c 22bd c846 403e
000003a0: cdae c83d 3e3d 5f3e d854 3b3e e08b cd3d
000003b0: d83a aa3d 03b3 d73d 1f0b a53d 94c2 883d
000003c0: c81b 563e 4c7a a5bc 95be 58bb 315c 64bd
000003d0: bd23 323e 5e66 8a3e c8d9 dd3d fd49 f4bc
000003e0: e876 963e 4f62 4a3e ed4a 603e 94f1 813c
000003f0: 288a 0e3e 4a1b 9d3d b687 463e eaec 333d
0.36470747 0.11058694 0.08854878 0.18943864 0.061117355 0.049452733 0.15451764 0.06003789
0.0042617973 0.047053207 0.14909461 0.026649114 -0.01530657 0.014883776 0.118714735 0.02788337
0.06320258 -0.071064286 0.23873653 0.20987655 0.033277165 0.08219138 0.06323319 0.30358574
0.15002201 -0.041276794 0.13363504 0.19164489 0.15987773 0.18868947 0.17968598 0.13203341
0.14306793 0.16234092 -0.02149584 0.016677354 0.12543267 0.21707542 0.12953138 0.28225166
0.22269855 0.11279332 0.09635484 -0.04423183 0.18486774 0.25967693 -0.044250183 -0.06286032
0.24988687 -0.006820171 0.13768372 0.08384613 -0.19072174 0.15061608 0.24089885 0.0073944204
0.2956485 0.1185727 0.118372865 0.092235565 0.27289668 -0.10619695 0.16125476 0.07917261
0.05708366 0.26064596 0.15085666 0.13941109 0.20831724 0.08694116 0.2137156 0.13818839
0.2160813 -0.08260731 0.11828668 0.15774906 0.22771092 0.23548299 -0.034578867 0.15085408
0.10958624 0.004352778 0.2195203 0.16098636 0.0071574836 -0.023480538 -0.024561634 -0.05072346
0.10446531 -0.030886322 0.32439074 0.057201974 0.07019349 0.059055433 0.20297877 -0.14703855
-0.033999622 0.004015617 0.16538592 0.16907641 0.25754958 0.44015062 0.10751633 0.12517242
0.16780002 0.21307696 -0.021207632 0.060018506 0.11986335 0.024393758 0.18682899 0.04566011
0.2193742 0.03124938 0.15942048 -0.07579914 0.23132743 0.11069115 0.0805358 0.13060209
0.04165977 0.030459745 0.031003375 0.012650212 0.08092649 0.16232479 0.22387679 0.150224
0.13851662 0.3170423 0.17792873 0.2621813 0.17270347 -0.018489491 0.09066676 0.06789953
0.1713111 0.00080420444 0.16784799 -0.11632121 0.13406447 -0.029080296 0.021319414 0.29133424
0.1856592 0.19473031 0.16358423 0.06554736 -0.058623202 0.07454435 -0.22304806 0.057478245
0.275749 0.080465 0.2612144 0.19557305 0.1540781 0.13224734 0.0150119355 0.16872393
0.14377217 -0.026192486 -0.023016566 -0.13797878 0.06876334 0.09194315 0.016707819 0.021691702
0.20575938 -0.01814216 -0.26766732 0.021567764 0.10349833 -0.1440512 0.045745496 0.008407487
0.22421728 0.17806971 0.17787227 0.2189738 0.28305456 0.0009258984 -0.029222287 0.3483016
0.07152316 0.20735638 0.22617358 -0.044330113 0.117857166 0.08682785 0.26781657 -0.026399614
0.31253496 0.11752267 0.103691936 0.09466008 0.07912645 0.00934354 0.11009563 0.23052399
0.016779207 0.1551556 0.006375102 -0.009092642 0.0018117261 0.31565276 0.105041355 0.31585443
0.012205411 0.17918307 0.12592477 0.0761419 0.2331085 -0.039450243 0.020338159 -0.063466035
0.044770934 0.22125168 0.02561058 0.15502916 0.09986874 0.15754944 0.12292572 0.13411655
0.14422111 0.056828916 -0.018917475 -0.01633779 -0.05065336 -0.046350203 -0.039562672 0.18777001
0.097989656 0.21800706 0.18294084 0.10036445 0.08312005 0.10532191 0.08058762 0.06677738
0.20909035 -0.020199917 -0.003307258 -0.055751983 0.17396446 0.27031225 0.10832554 -0.029820437
0.29387593 0.19764064 0.21903582 0.015862264 0.1391989 0.076712206 0.19387707 0.04392711

fc.4.weight f4 [128, 256]
00000000: 4a3a 733f b335 223f c99a 00be 413e da3e
00000010: faf3 13bd 4937 b1bf 1276 cabc 23d4 55be
00000020: d345 2c3d 7415 00bf a3c4 75bf 1d4a 5fbd
00000030: 44e2 a5bc e87b 883f 9de7 a73f e764 37bc
00000040: 7549 f3be c30c 343f c101 da3e 65b2 333f
00000050: 9a5a 81bd 763b 38bf 4f2f 11c0 5ab4 7d3f
00000060: 6d17 22be 055a 02bf 09f1 97be a3bc 393e
00000070: 2d94 70bf 5a39 5e3e 9823 ab3e cda3 22be
00000080: 9963 97be 8acc cbbb d49a 1ebf 0cde 6b3d
00000090: 0dc0 be3e 6be8 b63e 50e3 f5bd 6110 99be
000000a0: cb17 103f 16ab 4b3e 96c4 e8bd b01b bfbb
000000b0: 2643 bf3c 472d e43e dd7f 16bd 5c20 23bf
000000c0: 063d 333f b434 f1bc 5766 ffbd 657f 6940
000000d0: 156b b9bf 722f 06bf 0461 a9be 1ead d83b
000000e0: dfb9 b0be 59a8 e23e a83b f13e d2b3 22bf
000000f0: c214 433e 2eb5 0b40 6290 623e fa77 e6be
00000100: d832 c3be 8abf 6c3f 2355 873e f736 24bf
00000110: 4581 74bf afc6 4ebe 5361 093e 8034 3c3e
00000120: 75b2 5e3e 8220 fbbf cece 05bf 9d15 7c3e
00000130: 6e44 93be a649 953e 329a 54bf 2503 04bf
00000140: e338 003e a73c c03b 389b 7c3e c337 303f
00000150: 0667 09bb 0e8d f83c b043 d3bc 928a c53f
00000160: 9829 cebe f396 b33c f3dc 5c3f 32cb 66bf
00000170: 3af3 013f c754 00be 96ee f9bd 1d9f b43f
00000180: da34 1dbb bc51 043f 00a4 a7be e169 973e
00000190: 8a10 81be 4496 6d40 502a c23e e4ea 7f3e
000001a0: d14f 1240 8305 7b3e 9ab1 edbe 83ed 88bd
000001b0: d109 68be 67aa abbe d67d f4bd eb73 bdbd
000001c0: 1002 29bc 6964 8ebe bd3e 983e 5fd5 8c3f
000001d0: 00bd a33e 4f50 15bf 701c aebc 3946 363f
000001e0: 95f7 febe 6aca 2e3f 05c5 06bc 7225 fcbc
000001f0: 29fe a83e dfa6 383e 8893 f73e 4c72 c83e
00000200: bb6f c43d 919d ed3d 66fe 94bd b902 913f
00000210: 8610 493f cc09 8a3d 1d1d 4bbf 248c fdbf
00000220: 0e33 863d 3b95 953e 81d9 423e 4fe7 1abf
00000230: c94a 1fbe 7b12 44bd 1b73 24bf 284f a23e
00000240: 0f8d 9e3e eb11 533e c321 953e 28cd 17bf
00000250: eac1 8c3e 2c13 313e 24a4 c43f 1ed3 41c0
00000260: 5129 b7be b645 13bf 105e fe3e 8d89 9fbe
00000270: 10c7 88bc fe2d 2ebf 56cd 2d3c 128e 67be
00000280: 17b5 9d3e 4c10 acbd 3720 29bd 40e2 18c0
00000290: abbb 473d 49eb 233d e41e 6d3f db8f f9be
000002a0: d3dd c9bd 5588 c0bf 7096 0b40 d2b0 0a3d
000002b0: baae f6bf 1ac9 813f a7f2 2dbf 4b39 613c
000002c0: 3316 7c3e ebf6 6c3e 0b72 9abe cfc7 bb3f
000002d0: bf22 05bf 952d 65bc 7575 463d 0140 1c3f
000002e0: eccd 32bf fd4a 7ebe 1367 923f 4bda 573e
000002f0: 476e 893e bbf9 14be 7962 783e 1ff7 3ebf
00000300: 2e20 d33e 2706 333e 0901 81be fdd4 5a3f
00000310: ff5f 0abe 9e79 58bd c381 85bd 2dae 7a3e
00000320: 92da 69bd 7439 4d3f 12c6 943f 5f95 773b
00000330: 4793 2ebd b372 053f 1530 cfbe c9ce 073f
00000340: 488a 55bf b7e4 f1bb ab3d 2cbe b28c 33bd
00000350: 849c d7bd f5cd 67bd 5d39 32bd fd89 5d3e
00000360: 58ad 81be c5b8 9e3e eee0 46bc 2740 1fbf
00000370: cde2 f5bf 0f75 413f c04f 18be baa1 cbbd
00000380: 8e3b 29be 776b e33e e022 343c 0f56 293d
00000390: 5396 85bc 4c37 6cbd b20c 3d3d 7b2a f8be
000003a0: 8153 313e aac5 363e 24d1 f7bd bd13 e9be
000003b0: feae 8abc 3be5 7b3e 1ef4 813d 0e39 95be
000003c0: d283 fbbd d78d 6a3c 15ac 3fbc 3b48 24c0
000003d0: 605f 353f 2b05 0b3f ce85 97bd 7548 4e3c
000003e0: 0219 993e 766e 323f 6854 49be 4105 983e
000003f0: 8906 e93e 1d4e 96bc b1bc 843e 1b56 743e
0.9501082 0.6336319 -0.12559046 0.4262562 -0.036121346 -1.3844997 -0.024714503 -0.20881705
0.042058777 -0.50032735 -0.9600317 -0.05451404 -0.020249493 1.0662813 1.3117558 -0.011193491
-0.4751698 0.7033197 0.42579463 0.70194083 -0.06316109 -0.7196573 -2.2685125 0.9910332
-0.15829249 -0.5091861 -0.29676083 0.18138365 -0.939761 0.21701565 0.33425593 -0.15882798
-0.29568174 -0.0062194513 -0.61955 0.057584807 0.37255898 0.35724196 -0.12006247 -0.2989531
0.56286305 0.19889483 -0.11365621 -0.005832158 0.023347449 0.44565794 -0.036743034 -0.6372125
0.7001499 -0.029444076 -0.12470692 3.6484005 -1.4485804 -0.52416146 -0.3308183 0.006612434
-0.34516808 0.44269064 0.47115827 -0.63555634 0.19050887 2.1829333 0.2212539 -0.4501341
-0.38124728 0.92479765 0.26432142 -0.6414637 -0.9550975 -0.2019298 0.13416032 0.18379402
0.21747763 -1.9619296 -0.52268684 0.2461762 -0.28763145 0.29157752 -0.83047783 -0.515673
0.125217 0.0058666053 0.24668586 0.68835086 -0.0020965948 0.030340698 -0.025789112 1.5432913
-0.4026611 0.021922564 0.8627464 -0.901538 0.5076176 -0.1253234 -0.1220371 1.4111058
-0.00239878 0.51687217 -0.3274231 0.29572967 -0.2520793 3.7122965 0.37922907 0.24991947
2.2861216 0.24513821 -0.46424562 -0.06685927 -0.22659995 -0.33528444 -0.11938064 -0.09250625
-0.010315433 -0.27810982 0.29735366 1.1002616 0.31980133 -0.58325666 -0.021253794 0.712009
-0.49798265 0.6827761 -0.008225684 -0.030779574 0.3300641 0.18032406 0.48354745 0.39149702
0.095916234 0.11602319 -0.07275085 1.1328956 0.7854084 0.0674015 -0.793413 -1.9808393
0.06552707 0.29215416 0.19028284 -0.605092 -0.15555872 -0.047869187 -0.64238137 0.31701016
0.30966994 0.20612304 0.2912732 -0.5929742 0.27491695 0.1729247 1.5362592 -3.0285106
-0.3577371 -0.57528245 0.4968114 -0.3115963 -0.016696483 -0.6803893 0.010608038 -0.2261279
0.30802223 -0.08401546 -0.041290488 -2.3888092 0.04876296 0.040019307 0.9262526 -0.48742566
-0.09856763 -1.5041605 2.181057 0.033860035 -1.9272072 1.0139496 -0.67948383 0.01374657
0.24617843 0.23141067 -0.30165133 1.4670352 -0.52006143 -0.013987918 0.04845186 0.6103516
-0.6984546 -0.24833293 1.1437706 0.21079366 0.26841947 -0.1454839 0.24256314 -0.74595827
0.4123549 0.17482816 -0.25196102 0.85481244 -0.13513182 -0.05285036 -0.06518891 0.24480505
-0.05709321 0.8016579 1.1622946 0.003777824 -0.042620923 0.5212814 -0.4046637 0.53049904
-0.83414125 -0.0073820013 -0.168204 -0.04383535 -0.105279 -0.0565929 -0.043511737 0.2163467
-0.25327563 0.31000343 -0.012138588 -0.62207264 -1.9209839 0.7556924 -0.14874172 -0.09942956
-0.16526625 0.44417927 0.010994643 0.041341837 -0.016307032 -0.057669923 0.046154685 -0.4846991
0.1731701 0.1784884 -0.12100437 -0.45522872 -0.016929146 0.24599163 0.0634539 -0.29145092
-0.12281002 0.014316044 -0.011698742 -2.5669086 0.70848656 0.5430476 -0.07398568 0.012590517
0.29901892 0.696998 -0.19661105 0.29691508 0.45512798 -0.018347794 0.2592521 0.23860972

fc.4.bias f4 [128]
00000000: 3846 b43e 274f 01bd 20ca 9dbc 2934 a23e
00000010: fa57 bd3c a385 0b3e f6cf cebd f50c ed3e
00000020: 1128 02bd aeeb 00be 1b42 44bc e358 53bd
00000030: 7625 903e d983 a93d b789 dabc d45d d6bc
00000040: 70de 8d3e 105d 8bbc 1aa3 6a3d e8b0 72bd
00000050: cf6b 87bd 90a7 f53d a17e 513e e0db a93c
00000060: b840 a53e 2042 8ebc f419 a3bc 967b b53d
00000070: 2b73 d53c 6893 27bb a84a 3bbc 8b4c 133d
00000080: 38f6 053d 3245 33bd 9681 9c3e f027 713c
00000090: ab8b 813b 8d89 30bd 643b b7bc dda4 873d
000000a0: b4b0 873d 20b9 8ebc 0aa1 313d 0d40 0fbd
000000b0: a204 983e 051c b83c 7904 aabd 7f6f d93c
000000c0: 6d5a 84bd 2f30 79bc d132 843c 4de1 73bb
000000d0: 76eb 16bd e61c d43c 50af babd 9803 df3d
000000e0: 750e e7bd 2a2f 253c 5bb3 e13c c6e9 38ba
000000f0: 7a64 023e 4ed1 6a3e 05af 4e3e 4502 9f3e
00000100: 8865 213e fa63 453e c035 eebc af19 4b3c
00000110: f461 9a3d 6ed8 823d 5949 1a3e d684 ac3e
00000120: 2ffc 2abd a4e7 cf3d dc89 05bc affa c93d
00000130: d0d0 e33d 6e22 c93d 0a61 55bd 05f7 343e
00000140: 66f9 603d a942 37bd 9dea c1bd c7e4 0d3e
00000150: 57e9 033e 2e46 bc3c 1532 9bbc 0ca7 443e
00000160: 01b8 8a3e 1c18 343c ced5 9e3d 8e14 e6be
00000170: a463 d03d 2772 2e3e b2dd 5b3d 208d 703e
00000180: 5717 313e 802b d53e db2e 263e df55 193d
00000190: ebaa 4dbd dfce d73c fe61 aa3e 0a08 4d3d
000001a0: 1442 613e 94b9 993e 8635 5bbd 1273 fa3c
000001b0: 155a e43c 717e 21bd 34b4 e4bb 0702 853e
000001c0: d17f fb3d 2e3e f93d e25b acbd 2d21 123d
000001d0: d6af 61bd f8f5 ba3d cb1c e93c 57f0 a63d
000001e0: 4fcd d73d 33ee 913e 0ceb 573e 2d58 bb3b
000001f0: 3bfb 38bd f764 803d aec1 ef3e 2164 17bd
0.35209823 -0.031569626 -0.01926142 0.3168042 0.02311324 0.13625197 -0.10098259 0.46298948
-0.03177649 -0.12589905 -0.011978651 -0.05159844 0.2815358 0.08277101 -0.026676996 -0.026167788
0.2770877 -0.01701215 0.057284452 -0.059250742 -0.0661236 0.11994851 0.20458461 0.020734727
0.3227594 -0.017365515 -0.019909836 0.08861463 0.026055893 -0.0025570039 -0.011431374 0.03596167
0.032705516 -0.04376716 0.30567616 0.0147189945 0.0039534173 -0.04309993 -0.022367187 0.06623242
0.066255 -0.017422259 0.04336647 -0.034973193 0.29691035 0.022474298 -0.08301634 0.026542423
-0.0646256 -0.015209242 0.016137512 -0.0037213147 -0.036845647 0.025892686 -0.091154695 0.10889357
-0.11282054 0.010082046 0.027551344 -0.0007053878 0.12733641 0.22931406 0.20183952 0.3105642
0.15761387 0.1927642 -0.029078364 0.01239626 0.07538214 0.06388937 0.15067042 0.33695096
-0.041744407 0.10151604 -0.008150544 0.09862267 0.11123812 0.0982102 -0.052094497 0.17672355
0.054925345 -0.044741306 -0.09468577 0.13856803 0.12881981 0.022982683 -0.01894478 0.19204348
0.2709351 0.010992076 0.07755624 -0.44937557 0.10175255 0.17035733 0.053678222 0.23491335
0.1729406 0.4163475 0.16228811 0.03743541 -0.05021183 0.026343761 0.33277887 0.050056495
0.21997863 0.30024397 -0.05351784 0.030572448 0.027874986 -0.039427225 -0.0069794897 0.2597811
0.122802384 0.12170063 -0.08415963 0.03567617 -0.05509933 0.09128946 0.028456112 0.0815131
0.105372064 0.28502044 0.21085757 0.0057172985 -0.045161467 0.062692575 0.46827453 -0.036960725

fc.6.weight f4 [3, 128]
00000000: 72d7 b9bf 0cec 8ebf 415a abbc d07d 4dbf
00000010: b997 74bf 31a5 6b3f 7548 56bf 087e 4ac0
00000020: 190b 48bf b2e8 0ac0 698b cabf bcf1 523d
00000030: 84ff 15c0 2ce6 36c0 29ae c6bf f965 02c0
00000040: d4bf 0ec0 5a0b 823f 9955 95bf a8cb f93b
00000050: cae4 8fbd a950 5b3f 90d8 6d3f c701 673f
00000060: 3a5d 13c0 ce9d 00bd a643 adbd 7875 213f
00000070: d156 823e 95ba efbf 7078 f7bf 72df 9a3d
00000080: 34bc e03c 6c63 00c0 b919 16c0 be22 4d3d
00000090: 62c8 83bb 9d56 7ebf 98e8 85bf 5c82 2c3f
000000a0: 8229 b8bf e126 89bf 914c 493f d982 81bd
000000b0: d496 7ebe 2f64 533f 5a81 acbf 0540 afbb
000000c0: 602b 46bf e073 473f 9ddf d1bf bcbb 543f
000000d0: 90d2 3abc 636f 6e3f 82ab aabf d9db 763f
000000e0: d515 0ec0 5686 c1bf 3035 b5bf d2e2 613f
000000f0: d75b bfbf eedf 3fbf 467c d1bf b251 0ac0
00000100: e32a 573f 6a2e 55c0 15d9 7e3d 5226 54bd
00000110: df45 713f 2e16 703f 516e 7e3f b894 38bf
00000120: abeb ccbf 7c9d f6bf 4bb3 c0bf 0aa3 5ac0
00000130: 2118 803f 0950 7d3f 03d2 49bd fa94 803f
00000140: 41d4 a3bd b892 9b3d cea3 81bf b9c3 5e3f
00000150: aea4 19bf 65b8 213a 2c29 a3bf f735 debf
00000160: d4f8 14c0 f54f a43d 1f35 323f 91bb 7fc0
00000170: caf9 ebbf 30a3 863f a965 7c3f abc0 0ac0
00000180: 2b23 63bf 4d67 0dc0 cbd8 573f 3093 713f
00000190: 13d9 88bd 0aab 6c3f 25f8 83c0 713a 613f
000001a0: 7585 37bf 4c2b 41bf f9a3 a93d 8854 723f
000001b0: 4b50 693f fee5 843d 65c1 24bc a189 2fbf
000001c0: 2404 393f 0b41 3cc0 b11b e53e 9f4b b6bf
000001d0: d5f0 1f3d 2972 4e3f 4fee 98bf 4f67 613f
000001e0: c310 3f3f 4cc8 1ac0 1f50 c9bf be40 27bf
000001f0: 78bd acbf 40d6 c5bf 7fdd 35c0 593c 733f
00000200: ba8f 64bf 6368 87bf 0bcb 603c e780 25bf
00000210: 6194 72be c502 473f 2f8d cfbf 25dd 67c0
00000220: 365f 8fbf 5a50 1dc0 552a debf ff02 593d
00000230: 41ab 2dc0 6aa5 32c0 d469 c8bf 55bc 22c0
00000240: 1635 34c0 198a 8a3f bd43 98bf d7ab ca3c
00000250: b766 4e3d 90d6 5f3f 2486 753f 5ebb 4b3f
00000260: 37be 0cc0 4bd6 1b3c 8894 dcbc ee4b 373f
00000270: 9a30 7a3f 5ddf debf 12c2 0bc0 2408 03bd
00000280: 6c0b 15bd 52c4 6dc0 0316 21c0 a2fb a83d
00000290: 1987 90bd f921 8abf 1791 86bf caa6 573f
000002a0: c148 e4bf 6542 debe b398 2f3f 84fb a1bd
000002b0: a9a1 c5bf 119f 2b3f 315a b8bf 96a9 4b3d
000002c0: c489 a0bf 988e 643f 44f8 eebf c767 693f
000002d0: 6b15 a03d aa6e 4f3f 3dbe 99bf f87d 5c3f
000002e0: 12d6 1dc0 0587 b6bf ad3f 48bf a1ee 533f
000002f0: c6b5 98be 903b 2cbf bc8d edbe f38a 0fc0
00000300: 091b 913f c239 61c0 8766 85bd 826d b23c
00000310: 0bf2 8f3f ffba 393f 233a 7c3f 99c8 f6be
00000320: fb94 e1bf 4b1a 98bf 3ba1 e8bf a049 65c0
00000330: 9aa8 2f3f 7551 593f 5fb5 5b3d a5b1 a13f
00000340: b0d2 c3ba 4f6e 7c39 5b6f 3ebf 100a 4f3f
00000350: 1ee7 6c3f 7807 a1bd 13e0 82bf 80fd 64bf
00000360: c074 12c0 60e1 bb3b c4b8 6c3f 6774 93c0
00000370: b76a dcbf c238 843f aaa2 3a3f a536 15c0
00000380: dd39 9cbf 6e48 dbbf d665 533f 3c74 613f
00000390: fac2 a83d 1d87 693f 7e0c 65c0 cbd5 533f
000003a0: 25e1 35bf a737 3abf ace2 723d 8ba1 613f
000003b0: 5b60 0f3f 673b bc3c 49f7 3d3d d423 2bbf
000003c0: ecb3 413f abfb e4bf dc81 f4be 9375 67bf
000003d0: df94 10bd 601e 3b3f 2219 87bf 8cdc 6d3f
000003e0: 91a8 683f fa94 27c0 58ef 7dbf 4d61 55bf
000003f0: 57a3 94bf ecb1 69bf 8da0 3ec0 78e6 163f
-1.4518874 -1.1165786 -0.02091706 -0.802701 -0.9554401 0.9204894 -0.8370431 -3.1639423
-0.78141934 -2.1704526 -1.5823795 0.051500067 -2.3437204 -2.8577986 -1.55219 -2.037474
-2.2304583 1.0159714 -1.1666747 0.0076231547 -0.0702606 0.8566995 0.92908573 0.90237087
-2.302565 -0.031400494 -0.084601685 0.6306987 0.2545686 -1.8728815 -1.933363 0.0756215
0.027433492 -2.0060682 -2.34532 0.05008196 -0.00402169 -0.9935091 -1.0461607 0.6738641
-1.4387667 -1.071499 0.78632456 -0.06323785 -0.24862224 0.82574743 -1.3476975 -0.005348208
-0.77409935 0.77911186 -1.6396366 0.8309896 -0.011402741 0.9313871 -1.333359 0.9642921
-2.2200825 -1.5119121 -1.4156857 0.88236725 -1.4949902 -0.74951065 -1.636605 -2.1612363
0.84049815 -3.330958 0.062218744 -0.051794358 0.9424724 0.93783844 0.9938708 -0.72101927
-1.600942 -1.926681 -1.5054716 -3.416201 1.0007364 0.9895025 -0.04927255 1.0045464
-0.079994686 0.07596344 -1.0128114 0.870174 -0.60016906 0.00061691395 -1.274694 -1.7360219
-2.3276873 0.08023063 0.69612306 -3.9958231 -1.8435605 1.0518551 0.9859262 -2.1680095
-0.8872554 -2.20943 0.84315175 0.94365215 -0.066820286 0.92448485 -4.124041 0.879798
-0.71688014 -0.7545669 0.082832284 0.94660234 0.9113814 0.0648918 -0.0100558745 -0.6856938
0.72271943 -2.94147 0.4474769 -1.4241828 0.039048035 0.80642945 -1.1947726 0.8804826
0.7463495 -2.4184752 -1.5727576 -0.65333164 -1.3495321 -1.5456009 -2.841644 0.9501396
-0.8928181 -1.0578731 0.013720284 -0.64649814 -0.23689415 0.777386 -1.6214961 -3.6228726
-1.1200931 -2.4580293 -1.7356669 0.052981373 -2.7135775 -2.791346 -1.5657296 -2.5427449
-2.81574 1.0823394 -1.1895672 0.024740143 0.050390925 0.8743677 0.9590781 0.79582775
-2.1991098 0.009511541 -0.026926294 0.71600235 0.9773041 -1.7411915 -2.18372 -0.031990185
-0.036387846 -3.7151074 -2.5169685 0.0825112 -0.07057018 -1.0791618 -1.0513028 0.84238875
-1.7834703 -0.4341003 0.68592376 -0.07909301 -1.543996 0.6703959 -1.4402524 0.049722277
-1.2542043 0.8928008 -1.8669515 0.91173977 0.07816585 0.81028235 -1.2011181 0.86129713
-2.4661908 -1.4259955 -0.7822216 0.82785994 -0.29826182 -0.67278385 -0.46397197 -2.2428558
1.1336375 -3.5191503 -0.06513696 0.021780733 1.1245741 0.7255096 0.9852621 -0.4819992
-1.762359 -1.1883024 -1.8174204 -3.5826187 0.6861664 0.8488992 0.053639766 1.2632338
-0.0014940109 0.00024073686 -0.74388665 0.8087473 0.92540157 -0.07862753 -1.0224632 -0.8944931
-2.2883759 0.005733654 0.9246943 -4.6079593 -1.7220067 1.0329821 0.72904456 -2.3314602
-1.2205158 -1.7131479 0.82577264 0.88067985 0.08240314 0.9122179 -3.5788875 0.827481
-0.7104667 -0.7274117 0.059298202 0.8813712 0.560064 0.022977544 0.046378408 -0.66851544
0.75665164 -1.7889303 -0.47755325 -0.9041378 -0.035298225 0.73093224 -1.0554545 0.9291465
0.9088221 -2.6184678 -0.99193335 -0.83351594 -1.1612347 -0.9128711 -2.9785492 0.5894542

fc.6.bias f4 [3]
00000000: 0408 d0be dacb 6f3d 6589 d5bc
-0.40631115 0.058544017 -0.026066491
