checkpoints/ddqn_paper_final.pth (torch, 282753 bytes, 6 tensors)

fc.0.weight f4 [256, 12]
0.15599392 0.32473624 0.40949294 0.42353943 -0.0472214 0.09592089 0.45223755 -0.047920924
0.37128228 -0.14126232 0.22566974 0.41922176 0.19122104 -0.030541353 0.39535525 0.13458273
0.39700165 0.14729531 0.085020885 0.16746247 0.4675893 -0.8446488 -0.80712175 0.27255145
-0.03821767 0.4419024 0.26280752 0.39813867 0.22095811 0.23005714 0.23593916 -0.038048413
0.2552369 0.34967777 0.2926773 0.4359539 0.17329745 -0.4211151 0.24524672 0.1662005
0.51241857 1.2179425 -0.37205464 0.6922244 -0.4456178 2.339482 -0.10970013 0.18127093
-0.33769163 0.5771702 0.6783199 0.33178866 -0.15914392 -0.20388219 -0.11241335 -0.63491726
-0.28917044 -0.27710834 0.02805724 0.34229565 0.3409525 0.2941031 0.26068693 0.30838865
0.34218654 -0.007220212 0.31743044 0.36857036 0.14296314 -0.2890131 -0.70850295 0.23841627
0.14482088 0.08215786 0.14757684 0.15576841 -0.16735035 -0.32307425 -0.18930835 0.2479251
0.97283334 -1.131322 -0.6131011 0.4047374 0.103788525 0.34191456 0.26884043 -0.13153557
0.145264 0.11852882 0.27223903 0.30989912 -0.33964905 0.06036175 -0.14716494 -0.21172413
0.16804692 -0.21213208 0.053606797 -0.3585972 0.10262091 0.17417185 -0.30266222 0.33299583
0.2631008 0.024050876 -0.54143363 0.5556166 0.30747864 -0.13415399 0.020139948 0.22679882
0.36397898 -0.10661383 0.13166907 0.338518 0.064983375 0.66199434 0.29690906 0.5416665
0.20143555 0.19798227 0.11416576 0.22079816 -0.30809835 0.08584837 0.19124973 0.08708136
0.01631525 -0.4041802 -0.17503656 -0.25476027 0.18539818 0.3158026 0.18103652 0.279504
-0.09035326 0.23345217 0.34530163 0.50043726 0.25802642 0.55460274 -0.0058726734 0.48301345
0.041699827 0.2945496 0.3645775 0.3333025 0.16876295 0.30015123 0.1862824 0.36617345
0.34656602 -0.97332495 -0.07113681 -0.3028414 0.49249762 0.21247475 0.037178274 0.50823504
0.21605353 0.34218782 0.05458589 0.5119543 0.21029754 0.5303976 0.058430914 -0.23204078
0.25752482 0.07283371 0.2614692 -6.503785 -6.0437355 -0.08338516 -0.18403035 -0.43287048
0.050886642 -0.1829911 2.5642676 0.61995834 0.1758915 0.45207843 0.12905328 0.23094198
0.046118524 0.1641811 0.2547312 0.4378674 0.3911478 0.37369746 0.048149552 -0.29217976
0.41962108 0.15090746 -0.061911926 0.023968413 -0.06862128 0.036957953 0.4770871 0.18259047
0.54166037 -0.010544126 -0.15112327 -0.34619078 0.018836532 -0.16811712 0.007763651 0.34280747
-0.045888714 0.5795334 0.42948362 -0.12942845 0.34203288 -0.45352226 0.0942252 0.30210966
-0.0070191748 0.064423695 0.058385845 0.49860418 0.20669343 0.08296007 0.32078382 0.32448682
0.1709731 0.20229372 0.06928271 0.40740547 0.87349087 1.0865526 0.4408394 0.32308558
0.24244702 -0.15110616 -0.3593756 -0.017041797 -0.1850365 -0.3920373 -0.883466 0.25527564
0.23944294 0.013963515 0.33561203 0.43271798 0.014632342 -0.2945863 0.19587442 0.27424914
0.13526921 -1.0528945 -0.08327214 -0.30832466 0.23110282 0.37878266 0.270657 -0.039604615
00000000: dfbc 1f3e d443 a63e 0fa9 d13e 29da d83e
00000010: 3a6b 41bd 2c72 c43d ae8b e73e bb48 44bd
00000020: b618 be3e 12a7 10be f815 673e 3ca4 d63e
00000030: 73cf 433e dc31 fabc 016c ca3e 0ed0 093e
00000040: cd43 cb3e 95d4 163e 6e1f ae3d 487b 2b3e
00000050: dd67 ef3e e73a 58bf 889f 4ebf dd8b 8b3e
00000060: 228a 1cbd 0841 e23e b58e 863e d5d8 cb3e
00000070: d842 623e 1994 6b3e 099a 713e a7d8 1bbd
00000080: 69ae 823e f708 b33e cdd9 953e 5935 df3e
00000090: e374 313e 669c d7be f521 7b3e 7730 2a3e
000000a0: dd2d 033f 8ae5 9b3f f27d bebe 9e35 313f
000000b0: 0428 e4be 13ba 1540 76aa e0bd 169f 393e
000000c0: ebe5 acbe 6dc1 133f 5fa6 2d3f 34e0 a93e
000000d0: a0f6 22be 7ec6 50be f838 e6bd f089 22bf
000000e0: 260e 94be 25e1 8dbe 4cd8 e53c 6041 af3e
000000f0: 5391 ae3e ae94 963e c278 853e 1ee5 9d3e
00000100: 1333 af3e 8797 ecbb 3e86 a23e 41b5 bc3e
00000110: ee64 123e 86f9 93be 7360 35bf 6523 743e
00000120: ed4b 143e 6142 a83d 621e 173e c181 1f3e
00000130: e45d 2bbe fd69 a5be 0cda 41be 14e0 7d3e
00000140: 9b0b 793f 29cf 90bf 32f4 1cbf be39 cf3e
00000150: 148f d43d 6d0f af3e 74a5 893e 43b1 06be
00000160: 16c0 143e 3dbf f23d ea62 8b3e 19ab 9e3e
00000170: 7be6 adbe e23d 773d 68b2 16be 36ce 58be
00000180: 7e14 2c3e 2739 59be cd92 5b3d 0d9a b7be
00000190: e92a d23d 1b5a 323e 8bf6 9abe 6e7e aa3e
000001a0: 26b5 863e 5806 c53c 659b 0abf e43c 0e3f
000001b0: d76d 9d3e aa5f 09be 88fc a43c f33d 683e
000001c0: 745b ba3e 5a58 dabd 42d4 063e 3b52 ad3e
000001d0: 0116 853d 7678 293f 7704 983e a8aa 0a3f
000001e0: 1f45 4e3e ddbb 4a3e bdcf e93d ea18 623e
000001f0: 11bf 9dbe 45d1 af3d f8d6 433e b657 b23d
00000200: 8fa7 853c b5f0 cebe c93c 33be f06f 82be
00000210: 05d9 3d3e e1b0 a13e a361 393e 261b 8f3e
00000220: 210b b9bd 160e 6f3e 60cb b03e a81c 003f
00000230: 0a1c 843e 72fa 0d3f 8e6f c0bb 8a4d f73e
00000240: 70cd 2a3d 35cf 963e e7a9 ba3e a0a6 aa3e
00000250: 32d0 2c3e 6cad 993e d0c0 3e3e 167b bb3e
00000260: 1a71 b13e d32b 79bf 2db0 91bd 070e 9bbe
00000270: a628 fc3e fb92 593e 3f48 183d b11b 023f
00000280: 233d 5d3e 3e33 af3e 7495 5f3d 700f 033f
00000290: 3d58 573e 23c8 073f 4155 6f3d 199c 6dbe
000002a0: 4bda 833e d729 953d 4adf 853e 021f d0c0
000002b0: 4866 c1c0 d7c5 aabd 7472 3cbe 33a1 ddbe
000002c0: 836e 503d 0562 3bbe f61c 2440 97b5 1e3f
000002d0: e71c 343e d376 e73e 8b26 043e 0e7c 6c3e
000002e0: c7e6 3c3d 171f 283e 216c 823e 2830 e03e
000002f0: 8644 c83e 4655 bf3e 7738 453d 9698 95be
00000300: 93d8 d63e 7c87 1a3e 5c97 7dbd 6859 c43c
00000310: 5089 8cbd 3961 173d c344 f43e fff8 3a3e
00000320: 41aa 0a3f 45c1 2cbc 0fc0 1abe eb3f b1be
00000330: 124f 9a3c e526 2cbe 3a66 fe3b 7684 af3e
00000340: cef5 3bbd 4d5c 143f 47e5 db3e e488 04be
00000350: ef1e af3e 1234 e8be 24f9 c03d 1eae 9a3e
00000360: 1b01 e6bb 92f0 833d ff25 6f3d 0c49 ff3e
00000370: 71a7 533e f8e6 a93d c73d a43e 2323 a63e
00000380: 9313 2f3e 1626 4f3e 18e4 8d3d 7397 d03e
00000390: 199d 5f3f 2814 8b3f b4b5 e13e 796b a53e
000003a0: 0844 783e 93bb 1abe 1400 b8be 3d9b 8bbc
000003b0: 357a 3dbe 1db9 c8be d42a 62bf 7db3 823e
000003c0: 8830 753e 3ac7 643c 57d5 ab3e 368d dd3e
000003d0: 7ebc 6f3c 04d4 96be 4e93 483e 626a 8c3e
000003e0: 0384 0a3e 3fc5 86bf 958a aabd bbdc 9dbe
000003f0: 38a6 6c3e cdef c13e 8e93 8a3e 7338 22bd

fc.0.bias f4 [256]
0.2507208 0.43989646 0.23318468 0.5127626 -0.37735265 0.56039536 -0.18667488 0.117036
0.20031844 0.4167732 0.35104725 0.03375512 0.3753689 0.089292035 -0.30374077 0.29590908
0.60288364 -0.010245347 0.048260145 0.11078028 0.45189413 0.5083982 -0.18899776 0.21205564
-0.46447098 0.412838 0.24019922 0.16043131 0.3329605 0.2573429 0.04242154 0.022953814
-0.24583974 0.051735222 0.3846097 0.36128995 0.22430035 0.14519598 0.200687 0.230179
-0.0635819 0.19937535 0.05352489 0.19390202 -0.4124058 0.120912485 0.32754162 0.105628744
0.3693793 0.36460012 0.07710793 0.21533342 0.182794 -0.110239446 0.6314996 0.3046216
0.22953178 0.119323075 0.2244803 -0.10119734 -0.06854158 0.022952685 0.30892006 0.050301358
0.16267058 0.039376225 0.25870636 0.27654803 0.3596404 0.4825003 -0.039569557 0.049945015
0.1320561 0.16281691 0.26933563 0.40834197 -0.1038145 -0.0144609045 0.04911168 0.21272746
-0.035595052 0.26865384 0.11263127 0.09815749 -0.27533352 0.10448642 0.021638466 0.28435853
-0.096059404 -0.064068936 0.10203134 0.37575847 -0.3751873 0.26381055 -0.2830662 0.03528448
0.23359591 -0.407698 0.3276263 0.65524143 0.16635345 0.06641784 -0.04717757 0.42205325
0.03238653 0.2610415 0.017479891 -0.40232763 0.22835985 0.46722856 0.07302201 0.16984738
0.31887653 -0.09539134 0.21034098 -0.24443279 -0.036948744 -0.07476234 0.01340312 0.22813511
-0.33125943 0.03619308 0.39332715 -0.07813778 -0.11436987 0.3627487 -0.048515525 0.04523921
0.2920936 0.15325749 0.81434786 -0.022958566 0.21517135 -0.031116202 0.34685308 -0.021370754
0.49113953 0.068203375 0.31286094 0.05727907 0.30249414 0.24516761 0.14919409 -0.23790284
-0.11592511 -0.12721494 0.4758018 0.17189997 0.32051438 0.032559156 0.20176463 0.1842372
0.025756797 0.15541944 -0.031859703 0.21318449 0.5949387 0.14426215 0.13708706 -0.32750994
0.13054694 -0.34143978 0.12467656 0.22858891 0.49177632 -0.37388903 0.59285796 -0.011046281
0.4548347 -0.53957665 -0.5595413 -0.52279484 0.06901297 0.20402648 -0.09814307 0.48890764
-0.12719569 0.19922146 0.13113545 0.42865336 -0.104536444 0.54681885 -0.06747991 0.29394832
0.04575689 -0.50384355 -0.11224383 -0.10224871 0.034698322 -0.102695554 0.3981503 -0.26933524
0.49982616 0.08554037 0.0706854 0.17920075 0.29882193 0.1571711 0.20328577 0.33566216
0.434756 -0.07221698 -0.28094712 0.4663502 0.2521418 0.39840874 0.4339575 0.08856073
-0.084359884 0.49967334 0.22802743 -0.27211967 0.56378543 -0.3265249 0.008517799 0.12809916
0.56185144 0.057606954 0.32378817 -0.15609527 0.03362442 0.14904682 0.21090807 0.3044918
-0.6405222 0.03720304 0.2378202 0.10738913 0.23335283 0.5907952 -0.08171078 -0.105756864
0.31373474 -0.07068264 -0.1768177 -0.25224563 -0.12619138 -0.34488472 0.4794919 -0.43565568
0.028578693 0.24488853 0.2824743 0.26386142 0.049960744 0.23523763 -0.2505413 0.31025463
0.46043262 0.45419845 0.23876995 0.25832683 0.6271429 -0.035088867 0.31794086 0.033757094
00000000: 7a5e 803e 1c3a e13e f7c7 6e3e 6944 033f
00000010: 5e34 c1be 1276 0f3f b327 3fbe 92b0 ef3d
00000020: 4720 4d3e 4c63 d53e 77bc b33e cf42 0a3d
00000030: 5a30 c03e bede b63d e983 9bbe 6581 973e
00000040: 9556 1a3f 1adc 27bc 6eac 453d c5e0 e23d
00000050: ab5e e73e 6226 023f a188 41be 1d25 593e
00000060: 24cf edbe 815f d33e c9f6 753e 1b48 243e
00000070: cc79 aa3e 73c2 833e 35c2 2d3d a309 bc3c
00000080: 6abd 7bbe 50e8 533d 90eb c43e fffa b83e
00000090: feae 653e 41ae 143e e580 4d3e 0bb4 6b3e
000000a0: 3a37 82bd 0d29 4c3e ea3c 5b3d 408e 463e
000000b0: da26 d3be f7a0 f73d 89b3 a73e e253 d83d
000000c0: 491f bd3e deac ba3e c3ea 9d3d 5d80 5c3e
000000d0: 5a2e 3b3e 38c5 e1bd f5a9 213f 5df7 9b3e
000000e0: 610a 6b3e a85f f43d 2ade 653e 8d40 cfbd
000000f0: 875f 8cbd 4507 bc3c c52a 9e3e cc08 4e3d
00000100: 1e93 263e f748 213d 2975 843e b497 8d3e
00000110: c922 b83e 480a f73e b013 22bd 2593 4c3d
00000120: b739 073e 7ab9 263e 5ce6 893e 3312 d13e
00000130: b29c d4bd 6eed 6cbc 5429 493d 3ad5 593e
00000140: 1ecc 11bd ff8c 893e 39ab e63d cb06 c93d
00000150: 84f8 8cbe fafc d53d 2743 b13c 7197 913e
00000160: cbba c4bd 9336 83bd cff5 d03d 6a63 c03e
00000170: 8d18 c0be 2d12 873e 0eee 90be 7586 103d
00000180: c433 6f3e cbbd d0be a2be a73e e7bd 273f
00000190: 8f58 2a3e 1406 883d 453d 41bd 5d17 d83e
000001a0: bda7 043d 3ba7 853e fd31 8f3c e3fd cdbe
000001b0: 2ad7 693e 9538 ef3e 908c 953d 79ec 2d3e
000001c0: c943 a33e 895c c3bd a063 573e 974c 7abe
000001d0: 9157 17bd ff1c 99bd c398 5b3c 409c 693e
000001e0: d69a a9be 323f 143d 2d62 c93e b306 a0bd
000001f0: c03a eabd 33ba b93e 37b8 46bd c04c 393d
00000200: 4b8d 953e 88ef 1c3e 1a79 503f 9a13 bcbc
00000210: e155 5c3e 68e7 febc ba96 b13e b811 afbc
00000220: a476 fb3e 36ae 8b3d 4f2f a03e 759d 6a3d
00000230: 83e0 9a3e 380d 7b3e 56c6 183e cd9c 73be
00000240: 256a edbd a244 02be 4b9c f33e 8c06 303e
00000250: 761a a43e c05c 053d 639b 4e3e ada8 3c3e
00000260: ebff d23c 4626 1f3e 527f 02bd 094d 5a3e
00000270: e74d 183f 75b9 133e 8d60 0c3e 62af a7be
00000280: 19ae 053e 32d1 aebe 6d56 ff3d 3613 6a3e
00000290: 1bca fb3e 626e bfbe 8ac5 173f 76fb 34bc
000002a0: 18e0 e83e b221 0abf 193e 0fbf e2d5 05bf
000002b0: ac56 8d3d 51ec 503e 3cff c8bd 1a52 fa3e
000002c0: 963f 02be b600 4c3e 5f48 063e 7478 db3e
000002d0: 3417 d6bd 52fc 0b3f e832 8abd 6580 963e
000002e0: 946b 3b3d e4fb 00bf 18e0 e5bd c667 d1bd
000002f0: d41f 0e3d 0c52 d2bd 5bda cb3e 4fe6 89be
00000300: 37e9 ff3e ca2f af3d 82c3 903d 6780 373e
00000310: 30ff 983e 76f1 203e 252a 503e e9db ab3e
00000320: 5798 de3e 7fe6 93bd 4dd8 8fbe 74c5 ee3e
00000330: bb18 813e 3bfc cb3e ad2f de3e 545f b53d
00000340: e0c4 acbd 2fd5 ff3e 0680 693e 4553 8bbe
00000350: 3e54 103f 462e a7be 3d8e 0b3c 6d2c 033e
00000360: 7fd5 0f3f 45f5 6b3d 90c7 a53e 70d7 1fbe
00000370: c3b9 093d bb9f 183e 49f8 573e 59e6 9b3e
00000380: 43f9 23bf 3762 183d 2387 733e d5ee db3d
00000390: 0bf4 6e3e 5b3e 173f fb57 a7bd 0e97 d8bd
000003a0: d7a1 a03e 0fc2 90bd b30f 35be 5726 81be
000003b0: 5038 01be bb94 b0be f67f f53e 430e dfbe
000003c0: dd1d ea3c 0fc4 7a3e 79a0 903e d818 873e
000003d0: a3a3 4c3d 22e2 703e f346 80be b2d9 9e3e
000003e0: d3bd eb3e b38c e83e 1c80 743e 6a43 843e
000003f0: 708c 203f 58b9 0fbd 25c9 a23e e144 0a3d

fc.2.weight f4 [256, 256]
-0.05206511 0.15311162 -0.13317345 0.16525789 0.52576464 0.15041596 -0.8326423 0.056859206
0.21529774 -0.021566104 0.13847287 0.09403296 0.2224339 0.2594814 -6.445561 0.10082247
0.19099364 0.052344956 0.09253115 0.1512513 0.24836488 0.45897737 -0.8023383 0.08690028
-1.6173956 0.16863039 0.053041797 0.19912454 0.044008143 -0.05933701 0.19180888 0.023145406
-0.03618051 0.6047782 -0.058611885 0.024538638 -0.081442125 -0.060771424 0.2257771 0.033975128
-1.402656 -0.042661816 -0.0033662242 -0.7688005 -0.6611295 -0.06729232 0.032624315 -0.089851245
0.21496883 0.2657873 0.29279768 -0.011900684 -0.71109605 0.12705308 0.32345256 -0.012656901
0.1271455 0.34813464 0.0142786205 -0.021883076 0.77348846 0.12245908 0.02539265 0.6334862
-0.05686995 -0.085464865 0.20681429 -0.091481395 0.31665343 0.26025146 0.112858586 -0.03806508
-0.84013784 0.3256858 0.019508969 0.055888787 -4.1607823 -0.7635709 0.033886127 0.12905517
-0.06157521 0.1143619 -0.66270214 -0.00901791 0.059718274 -0.8597132 0.04908564 0.91721535
0.022323437 0.38177723 -0.012509222 0.19455974 -0.71446943 0.01745273 -0.582568 0.00070771377
0.078331195 -2.1185372 0.025586335 0.08637329 -0.001843774 0.014380721 0.05268311 0.07059328
0.37730184 0.35472918 -0.0061304495 -1.344226 0.010657442 0.055017576 -0.03814574 0.05752144
0.022594718 0.035376765 -0.032880783 -0.07831037 -0.09204126 0.040943842 -0.044418298 0.009486608
0.4083346 0.018866187 0.031015014 -0.04480801 -3.0355308 0.11078536 -0.031063667 0.31135377
0.29265216 0.10807317 1.1173276 0.15635604 0.11331176 0.019165259 -0.047622792 -0.01704316
0.25688952 -0.005285687 0.0035675543 2.523305 0.038373727 0.052673176 0.04469741 -2.5018196
-1.4231274 0.037575413 0.08006101 -0.15736231 0.046192408 0.103680864 0.000609202 -0.0103212
0.023609959 0.053152356 0.062016115 0.7619331 0.3037243 -0.8656292 -3.2892947 -1.7867714
0.04198874 1.2909415 0.055691678 -0.089881435 0.07447062 -0.6771706 0.3103828 1.2818645
0.17544657 -1.2484068 -1.4533658 -1.3624563 0.092556775 -0.9734803 -0.7287549 0.12995948
-0.017094996 -0.013516393 -0.1313812 0.23813722 0.42881224 0.15519582 -0.903148 0.053772487
-0.654946 -3.2431781 0.15361322 -0.005918535 -0.8068336 -0.0010023054 0.16651414 -0.5239834
0.084020555 0.16232519 0.30570194 -0.026847173 0.25126478 0.09508883 0.10107359 -0.037143353
0.19880302 0.027642444 0.014323711 0.488013 0.15171932 0.034796953 0.17641515 -0.16451508
0.22086659 0.085362725 0.04572965 0.32508957 0.16739896 -1.0095948 1.6467304 0.20883693
0.29494008 0.16043366 0.22287534 -0.9288102 0.3023286 0.025820011 -0.015812716 1.9778434
-1.4550365 0.0039288197 0.13872741 0.07415243 0.19806476 0.23850532 0.61588126 0.042760428
-0.0070406115 0.09422119 0.031775735 -2.1274357 0.1519316 0.029472524 0.15486048 -4.316852
-0.036653303 0.010661242 0.35065728 0.19457094 0.15497631 0.20614447 0.03208752 -0.043988507
0.23755394 0.11426386 0.026517648 -0.029652294 0.26963574 0.002086465 0.006958536 -0.028899837
00000000: 3a42 55bd 4bc9 1c3e 9f5e 08be 5d39 293e
00000010: 8398 063f a406 1a3e 0c28 55bf 33e5 683d
00000020: 0377 5c3e 66ab b0bc d5cb 0d3e 5a94 c03d
00000030: b6c5 633e bfda 843e 0942 cec0 037c ce3d
00000040: d693 433e aa67 563d f980 bd3d 9fe1 1a3e
00000050: 5d53 7e3e 15ff ea3e 0b66 4dbf c6f8 b13d
00000060: d206 cfbf 72ad 2c3e 5b42 593d 4ee7 4b3e
00000070: e241 343d 5d0b 73bd 8c69 443e 6f9b bd3c
00000080: 0432 14bd bed2 1a3f 0413 70bd 4105 c93c
00000090: 21cb a6bd 75eb 78bd 1d32 673e 8129 0b3d
000000a0: 3b8a b3bf 28be 2ebd df9b 5cbb 1cd0 44bf
000000b0: c83f 29bf 8ed0 89bd 13a1 053d ee03 b8bd
000000c0: ca20 5c3e 4615 883e 94e9 953e 16fb 42bc
000000d0: 640a 36bf 341a 023e 939b a53e e45e 4fbc
000000e0: 6e32 023e b43e b23e e0f0 693c 2344 b3bc
000000f0: 5703 463f d3cb fa3d 3f04 d03c 272c 223f
00000100: 77f0 68bd 3408 afbd 20c7 533e 995a bbbd
00000110: 6620 a23e ae3f 853e 6722 e73d 21ea 1bbd
00000120: 4613 57bf 4ac0 a63e 46d1 9f3c a4eb 643d
00000130: 2125 85c0 6279 43bf 2ecc 0a3d 0a27 043e
00000140: 4a36 7cbd 9236 ea3d d9a6 29bf dbbf 13bc
00000150: 269b 743d 2a16 5cbf 060e 493d a0ce 6a3f
00000160: a4df b63c 4e78 c33e 7bf3 4cbc ab3a 473e
00000170: 78e7 36bf 07f9 8e3c 2d23 15bf de85 393a
00000180: 1b6c a03d 1d96 07c0 6f9a d13c 7be4 b03d
00000190: caaa f1ba 1e9d 6b3c 3fca 573d 3693 903d
000001a0: b52d c13e 109f b53e f0e1 c8bb 990f acbf
000001b0: 8d9c 2e3c 1c5a 613d b53e 1cbd 9a9b 6b3d
000001c0: 8f18 b93c 3ae7 103d 00ae 06bd 3061 a0bd
000001d0: 2180 bcbd bbb4 273d f6ef 35bd b86d 1b3c
000001e0: 3c11 d13e 438d 9a3c 3313 fe3c 9b88 37bd
000001f0: 2346 42c0 6fe3 e23d 3b79 febc c369 9f3e
00000200: 81d6 953e 7755 dd3d 9704 8f3f cc1b 203e
00000210: ff0f e83d 7600 9d3c 1e10 43bd 199e 8bbc
00000220: 0687 833e 8e33 adbb a1cd 693b d47d 2140
00000230: c52d 1d3d d4bf 573d a214 373d d01d 20c0
00000240: 0a29 b6bf ade8 193d 07f7 a33d 9623 21be
00000250: 4034 3d3d a256 d43d dbb2 1f3a 401a 29bc
00000260: ac69 c13c 49b6 593d 9c04 7e3d 0c0e 433f
00000270: c081 9b3e e099 5dbf ce83 52c0 edb4 e4bf
00000280: 63fc 2b3d 923d a53f f51c 643d c213 b8bd
00000290: 0d84 983d 0d5b 2dbf 7fea 9e3e 2314 a43f
000002a0: 44a8 333e cbcb 9fbf e407 babf f864 aebf
000002b0: 688e bd3d 0136 79bf ae8f 3abf 1914 053e
000002c0: ce0a 8cbc dc73 5dbc cb88 06be 3eda 733e
000002d0: 478d db3e a7eb 1e3e b534 67bf 8a40 5c3d
000002e0: 8baa 27bf 3b90 4fc0 c94c 1d3e 45f0 c1bb
000002f0: a68c 4ebf ca5f 83ba af82 2a3e c723 06bf
00000300: f812 ac3d 9338 263e f784 9c3e 9aee dbbc
00000310: c7a5 803e efbd c23d acff ce3d a123 18bd
00000320: 0593 4b3e 6872 e23c 00ae 6a3c d7dc f93e
00000330: 4f5c 1b3e 4087 0e3d 2ca6 343e a476 28be
00000340: da2a 623e a7d2 ae3d 034f 3b3d 2472 a63e
00000350: a26a 2b3e 673a 81bf 10c8 d23f 59d9 553e
00000360: 6302 973e b948 243e 6f39 643e 81c6 6dbf
00000370: d0ca 9a3e 7d84 d33c ab89 81bc f929 fd3f
00000380: a33e babf 54bd 803b 8f0e 0e3e 3bdd 973d
00000390: 7dd1 4a3e bd3a 743e 65aa 1d3f 8f25 2f3d
000003a0: eeb4 e6bb 0af7 c03d 4627 023d e827 08c0
000003b0: f593 1b3e 5d70 f13c bf93 1e3e a723 8ac0
000003c0: c621 16bd 7dac 2e3c 5a89 b33e 9b3d 473e
000003d0: 1cb2 1e3e 8917 533e 346e 033d 4b2d 34bd
000003e0: 5741 733e 2c03 ea3d 8a3b d93c 5ee9 f2bc
000003f0: b20d 8a3e 13bd 083b 6e04 e43b 5abf ecbc

fc.2.bias f4 [256]
-0.032039244 0.081452444 0.048194315 -0.026413841 0.10592756 0.038817167 0.022969969 -0.053246006
-0.012932571 -0.19535868 0.058483984 0.028840937 -0.0651392 0.1537963 0.15159836 0.1835187
0.09755343 -0.044605684 0.12108348 0.08578836 0.07697113 0.0076135574 -0.05825256 0.051015865
0.30546466 -0.005776915 0.031843346 -0.057152376 0.14096583 -0.022727309 0.081484884 0.04514862
-0.0036697977 0.038754985 0.16115996 0.17959024 0.012732307 0.011113362 0.005081579 0.04795323
0.022459453 -0.032906666 0.049112517 -0.014047563 0.0658913 -0.043452308 0.04307796 0.1495016
0.42223305 -0.09866456 0.114941515 0.038108535 -0.054283276 -0.015408851 0.027879756 0.035976388
-0.038600817 0.08813268 0.023440864 -0.001200885 0.027068801 0.041719288 0.09756395 0.060883682
0.031365372 0.13326153 0.04077971 0.0947547 -0.015359011 0.041198462 -0.052101187 0.009208668
0.019294977 0.15431394 -0.052788354 0.20436338 0.07407828 -0.0028494867 0.04443926 0.11138025
0.036894154 0.110288456 0.04148739 0.095665514 -0.021371143 0.08668182 0.072279 0.06445839
0.059398126 0.060538135 0.17407516 -0.062301304 0.11511876 0.07176855 0.05627055 0.09210063
0.0036285927 0.010429383 0.042520355 0.086510785 -0.028195495 -0.04286751 0.09929769 0.09870841
-0.011174674 0.11261352 0.04138508 -0.048820443 -0.02288514 0.035663083 0.00029992426 0.03426923
-0.037204966 0.0016797117 0.03631087 0.07674556 0.10289047 -0.045728147 0.032676682 -0.039395455
0.011804835 0.084417745 0.24832264 0.13817665 0.014326297 0.10996237 -0.023520382 -0.06015658
0.030707182 0.04108187 0.040453747 0.053470656 -0.016417667 0.077415265 0.039979443 0.03718885
0.13879316 0.04293612 -0.040216893 -0.05200079 0.03503092 0.043602757 -0.050156802 0.01624779
0.068575926 -0.0060782293 -0.022124246 0.117950335 0.1053768 -0.027128192 0.06911104 -0.024444588
-0.044761226 -0.039062005 0.029267456 0.030577216 0.049761612 0.036481727 0.048739046 0.09587533
0.015749402 0.027012926 -0.04491413 -0.017337972 0.052137006 -0.03741046 -0.020815749 0.02335252
0.012784863 0.05340575 0.10285834 0.016298525 0.09784377 0.0052799876 0.13231449 0.07119045
0.051892396 0.056853317 0.020879542 0.09883195 0.066602476 0.028049132 0.15697475 0.06888
0.009528167 -0.061071537 0.08060261 0.2247947 0.03251417 -0.019742548 -0.22632346 0.060420927
0.055937972 0.038993835 0.10605361 0.06354329 0.069032535 0.09631627 0.033562087 0.05330034
0.05975185 0.038683694 0.029804207 0.10815815 -0.018983334 0.05218672 0.053394593 0.15816756
0.004852229 0.014956622 0.007538328 0.10496369 0.0749744 0.040345717 -0.038320437 -0.018133491
0.045978595 0.057378393 0.0045414437 0.09318993 0.08128014 0.03375357 0.16993167 0.10111777
0.07379745 0.07669439 0.12170255 0.0058257063 0.026243202 0.14477223 0.07160919 -0.0028934942
0.052673683 -0.032246035 0.080616646 0.05511317 0.122337595 0.12650932 -0.03834145 0.06045542
0.087588094 -0.02037312 0.04984786 -0.026465416 0.001991373 0.004998592 0.08284795 0.03920343
0.026755106 -0.033080515 0.01936625 0.025866834 0.14415352 0.04697781 0.108867005 0.04785679
00000000: 953b 03bd 8ad0 a63d 6767 453d d761 d8bc
00000010: 8cf0 d83d c0fe 1e3d 842b bc3c 7c18 5abd
00000020: 22e3 53bc 1b0c 48be e78c 6f3d d443 ec3c
00000030: b367 85bd c77c 1d3e 9a3c 1b3e 53ec 3b3e
00000040: 18ca c73d 73b4 36bd 9efa f73d cfb1 af3d
00000050: 0aa3 9d3d 267b f93b 3d9a 6ebd 03f6 503d
00000060: dd65 9c3e 464c bdbb 2b6e 023d 9c18 6abd
00000070: 5959 103e 9f2e babc 8ce1 a63d c2ed 383d
00000080: fd80 70bb 8cbd 1e3d 1e07 253e 81e6 373e
00000090: 2b9b 503c d214 363c 6083 a63b 9b6a 443d
000000a0: e3fc b73c 24c9 06bd 352a 493d c027 66bc
000000b0: 05f2 863d 0cfb 31bd 8472 303d f316 193e
000000c0: ee2e d83e a510 cabd 7566 eb3d b217 1c3d
000000d0: 2458 5ebd 6875 7cbc 1664 e43c fa5b 133d
000000e0: e41b 1ebd e87e b43d 0e07 c03c 0467 9dba
000000f0: 64bf dd3c d8e1 2a3d 9ccf c73d 2b61 793d
00000100: fa78 003d b675 083e a008 273d c10e c23d
00000110: 5ca4 7bbc b8bf 283d 0e68 55bd f4df 163c
00000120: 8010 9e3c 7904 1e3e 9a38 58bd a244 513e
00000130: 5ab6 973d 74be 3abb f105 363d 541b e43d
00000140: 531e 173d eade e13d aeee 293d 48ec c33d
00000150: 8912 afbc 3d86 b13d 0307 943d c302 843d
00000160: 734b 733d d6f6 773d c240 323e a72f 7fbd
00000170: 62c3 eb3d 64fb 923d f37b 663d 419f bc3d
00000180: afcd 6d3b 01e0 2a3c d329 2e3d 912c b13d
00000190: 3dfa e6bc d895 2fbd 965c cb3d a327 ca3d
000001a0: fb15 37bc eba1 e63d 6783 293d f2f7 47bd
000001b0: 9e79 bbbc 7413 123d 273f 9d39 e45d 0c3d
000001c0: 3c64 18bd c629 dc3a b5ba 143d c72c 9d3d
000001d0: 3db8 d23d 704d 3bbd fcd7 053d 215d 21bd
000001e0: 1169 413c 36e3 ac3d 4a48 7e3e 2e7e 0d3e
000001f0: d8b8 6a3c f333 e13d d1ad c0bc bf66 76bd
00000200: a18d fb3c 7745 283d d4b2 253d 0c04 5b3d
00000210: 587e 86bc e58b 9e3d 7cc1 233d 5653 183d
00000220: cb1f 0e3e c9dd 2f3d 78ba 24bd c8fe 54bd
00000230: 957c 0f3d ce98 323d 3871 4dbd 161a 853c
00000240: 8971 8c3d e22b c7bb e83d b5bc f28f f13d
00000250: cbcf d73d f13b debc 178a 8d3d 0440 c8bc
00000260: 8c57 37bd 7bff 1fbd 4ec2 ef3c 127d fa3c
00000270: d5d2 4b3d dd6d 153d 98a2 473d 495a c43d
00000280: e404 813c 364a dd3c e1f7 37bd 5d08 8ebc
00000290: 9d8d 553d b63b 19bd ca85 aabc c94d bf3c
000002a0: 9a77 513c fdbf 5a3d 65a7 d23d 7c84 853c
000002b0: 5162 c83d bf03 ad3b 737d 073e 4ccc 913d
000002c0: 1f8d 543d 06df 683d 930b ab3c 6868 ca3d
000002d0: e166 883d 4bc7 e53c fdbd 203e f510 8d3d
000002e0: 071c 1c3c 2626 7abd fb12 a53d 9530 663e
000002f0: 942d 053d 20bb a1bc 56c1 67be ef7b 773d
00000300: 371f 653d 00b8 1f3d a332 d93d fc22 823d
00000310: ee60 8d3d 7741 c53d 6678 093d 7551 5a3d
00000320: 5bbe 743d cb72 1e3d f427 f43c 0582 dd3d
00000330: f082 9bbc bec1 553d 4ab4 5a3d adf6 213e
00000340: 72ff 9e3b 9f0c 753c 1404 f73b 34f7 d63d
00000350: 2e8c 993d 8d41 253d e4f5 1cbd b08c 94bc
00000360: 0d54 3c3d 9b05 6b3d 64d0 943b 5dda be3d
00000370: 3476 a63d 2f41 0a3d 9102 2e3e d516 cf3d
00000380: 1e23 973d f311 9d3d 303f f93d 91e5 be3b
00000390: fcfb d63c 2c3f 143e d7a7 923d c7a0 3dbb
000003a0: 5cc0 573d 6b14 04bd 571a a53d 59be 613d
000003b0: 228c fa3d a98b 013e ed0b 1dbd 1aa0 773d
000003c0: 6361 b33d 88e5 a6bc 452d 4c3d 00ce d8bc
000003d0: b281 023b 3bcb a33b 30ac a93d c793 203d
000003e0: 862d db3c 6f7f 07bd f8a5 9e3c afe6 d33c
000003f0: fb9c 133e ce6b 403d aaf5 de3d 7b05 443d

fc.4.weight f4 [3, 256]
1.2296968 -0.5560766 1.4394444 1.5503525 1.2582842 0.018698767 1.354584 -0.0384013
0.044216618 -0.4052349 -0.53941214 1.2845112 -0.010096744 -1.4312596 -0.5694211 -0.5230986
1.3343863 1.507719 1.319706 -0.5458707 1.3630947 1.2501123 0.039726317 -0.016244972
3.0893285 -0.038117863 1.1950111 0.030989137 -0.4911871 0.053304486 -0.52959603 1.138607
0.024425924 1.6609772 -0.59870124 -0.50659657 -0.45869845 0.004121264 -0.4660429 -0.004756827
-0.55305654 1.6505975 -0.05923818 0.025914632 -0.40718275 0.029298216 1.3585843 -0.57777095
-0.4080333 -0.16998518 -0.5989661 1.3662616 -0.051740713 -0.042172715 1.6983094 -0.4425862
0.0105426535 1.2304976 -0.036260597 1.4185398 -0.024250222 1.3945934 1.2587545 -1.3662207
0.024290174 1.1653548 1.2489595 1.3795594 -0.04448765 1.4081984 -0.05311285 1.4598415
1.3464136 -0.58439827 -0.06099581 -0.36908448 1.2476604 0.41417798 -0.5993672 -0.4583794
1.3074235 1.3318461 1.4362696 1.2847736 -0.037106246 -0.5886994 1.588077 1.6256241
1.4824307 -0.030894592 -0.5981841 -0.009723032 -0.58682305 1.3441036 1.2260606 1.3680861
-0.039389305 4.1230354 0.053831227 -0.5156237 -0.040823348 0.044348642 -0.55052114 -0.5094286
1.2669476 1.4401859 -0.45428017 -0.021052016 -0.039901353 -0.049263075 -0.48681247 -0.054926064
0.02579154 1.4025788 1.3527422 1.4506187 -0.5573131 -0.015216097 -0.008512796 -0.05504991
1.3587233 1.3697437 -0.2374531 -0.55160624 -0.049446203 1.1577084 -0.051365122 0.017119762
-0.020932635 1.4501628 -0.053977344 -0.5661903 -0.022890676 1.4297284 0.012705633 1.437149
-0.59920245 -0.039197426 0.044231936 -0.024454512 1.369159 -0.01895468 -0.019528713 -0.45004803
-0.50937295 1.2770123 1.4307404 -0.5360865 1.2159108 -0.016271304 1.1853865 -0.025967509
-0.009563632 -0.05235665 1.3462522 1.5021293 1.2997652 1.3474374 1.449813 1.4103478
0.056246474 1.4256123 1.4747344 -0.036804214 -0.4772657 -0.021338547 1.4376451 1.5379033
0.0055602863 -0.50414354 -0.4829405 1.3701385 1.1917243 -0.029539026 1.2121994 -0.5385034
1.371391 -0.050780162 1.4354581 1.2366459 1.4346668 -0.027810048 -0.5597296 1.4180804
1.2740862 -0.4685042 -0.5003068 -0.5661851 1.1790062 -0.497305 -0.39933842 1.3641667
1.2798749 -0.45281017 1.4196327 1.3123572 1.2860929 1.1889614 0.0032522231 1.1821159
-0.6000287 1.3198283 -0.00017374009 1.1718202 1.486311 1.2813355 1.5270057 -0.556936
-0.04420316 1.334344 1.3625674 -0.5965722 1.3780923 1.5957898 0.03301193 1.2998552
1.306415 1.6578797 0.05559076 -0.4391823 1.3512329 1.5468562 -0.59955585 1.3678415
-0.5501331 -0.4357396 -0.62347364 -0.056758787 1.3717566 -0.4965869 1.5620955 0.019824045
1.3096502 0.023479093 1.2206662 1.2122492 1.285513 -0.53752905 -0.034206964 1.4123373
-0.5510656 0.0419105 1.19466 1.2882 1.2789886 1.412413 -0.4699678 -0.503705
-0.033530947 0.041956678 1.484414 -0.44360232 -0.61325294 0.020841643 -0.5910445 0.030211143
00000000: b466 9d3f 095b 0ebf b73f b83f f371 c63f
00000010: 750f a13f 282e 993c 0263 ad3f ae4a 1dbd
00000020: 7c1c 353d f37a cfbe ea16 0abf dd6a a43f
00000030: d06c 25bc 8433 b7bf 95c5 11bf cae9 05bf
00000040: 2ccd aa3f f0fc c03f 20ec a83f 2fbe 0bbf
00000050: e379 ae3f ae03 a03f 10b8 223d 2d14 85bc
00000060: 8fb7 4540 7a21 1cbd 20f6 983f eedc fd3c
00000070: e07c fbbe ce55 5a3d 9b93 07bf e0bd 913f
00000080: e018 c83c e79a d43f 7c44 19bf 50b0 01bf
00000090: 86da eabe ab0b 873b 2d9d eebe 28df 9bbb
000000a0: 1d95 0dbf c746 d33f bca3 72bd ec4a d43c
000000b0: 427a d0be d002 f03c 17e6 ad3f cce8 13bf
000000c0: bee9 d0be 9810 2ebe d855 19bf a9e1 ae3f
000000d0: 12ee 53bd 4cbd 2cbd 3462 d93f a99a e2be
000000e0: 18bb 2c3c f280 9d3f fe85 14bd b692 b53f
000000f0: 67a8 c6bc 0982 b23f de1e a13f 52e0 aebf
00000100: 30fc c63c 592a 953f e8dd 9f3f 6795 b03f
00000110: af38 36bd d83f b43f dc8c 59bd 16dc ba3f
00000120: 4857 ac3f 209b 15bf bed6 79bd a4f8 bcbe
00000130: 56b3 9f3f 230f d43e 2170 19bf b4b0 eabe
00000140: a759 a73f ef79 aa3f afd7 b73f 7673 a43f
00000150: b8fc 17bd 01b5 16bf 1b46 cb3f 7314 d03f
00000160: 4ac0 bd3f a816 fdbc 9822 19bf 5a4d 1fbc
00000170: 093a 16bf 960b ac3f 8eef 9c3f 721d af3f
00000180: ae56 21bd e8ef 8340 227e 5c3d eaff 03bf
00000190: 6236 27bd eca6 353d f4ee 0cbf ea69 02bf
000001a0: 572b a23f 0358 b83f 6997 e8be 4775 acbc
000001b0: 9a6f 23bd 14c8 49bd 7c3f f9be 27fa 60bd
000001c0: c848 d33c b487 b33f a826 ad3f e0ad b93f
000001d0: 12ac 0ebf f04c 79bc 4179 0bbc 047c 61bd
000001e0: a5ea ad3f c353 af3f e826 73be 1136 0dbf
000001f0: 1a88 4abd ca2f 943f 3c64 52bd be3e 8c3c
00000200: eb7a abbc ef9e b93f 5917 5dbd d9f1 10bf
00000210: 3a85 bbbc 5701 b73f 4a2b 503c 80f4 b73f
00000220: 5565 19bf 7b8d 20bd 8c2c 353d d454 c8bc
00000230: 9a40 af3f d846 9bbc aefa 9fbc b26c e6be
00000240: 4466 02bf 2475 a33f 8022 b73f f73c 09bf
00000250: f7a2 9b3f 664b 85bc bfba 973f d0b9 d4bc
00000260: c8b0 1cbc ed73 56bd fe51 ac3f c645 c03f
00000270: b55e a63f d478 ac3f 7993 b93f 4786 b43f
00000280: b462 663d 777a b63f 19c4 bc3f 04c0 16bd
00000290: 2b5c f4be 2dce aebc c104 b83f 04da c43f
000002a0: 1033 b63b 8d0f 01bf fa43 f7be b360 af3f
000002b0: 6c8a 983f d4fb f1bc 5a29 9b3f 5cdb 09bf
000002c0: be89 af3f dcfe 4fbd 17bd b73f 6a4a 9e3f
000002d0: 29a3 b73f e6d1 e3bc 704a 0fbf a983 b53f
000002e0: 4215 a33f c8df efbe 1b14 00bf 82f1 10bf
000002f0: ade9 963f c39e febe 1676 ccbe 049d ae3f
00000300: f1d2 a33f bcd6 e7be 86b6 b53f 52fb a73f
00000310: b19e a43f e32f 983f 4023 553b 934f 973f
00000320: 7b9b 19bf 22f0 a83f 002e 36b9 34fe 953f
00000330: 703f be3f cd02 a43f ec74 c33f 5c93 0ebf
00000340: 5f0e 35bd c9cb aa3f 9c68 ae3f f5b8 18bf
00000350: 5465 b03f d742 cc3f 8437 073d a861 a63f
00000360: 9b38 a73f 6735 d43f 23b3 633d 81dc e0be
00000370: 33f5 ac3f 62ff c53f 7e7c 19bf 6e15 af3f
00000380: 86d5 0cbf 4319 dfbe f89b 1fbf e77b 68bd
00000390: b895 af3f a340 febe bff2 c73f 0966 a23c
000003a0: 9ea2 a73f 3a57 c03c ca3e 9c3f fb2a 9b3f
000003b0: b18b a43f 819b 09bf 9a1c 0cbd 78c7 b43f
000003c0: a312 0dbf 58aa 2b3d 9eea 983f bde3 a43f
000003d0: e6b5 a33f f3c9 b43f 9f9f f0be d0f2 00bf
000003e0: bf57 09bd c4da 2b3d 4701 be3f d81f e3be
000003f0: 25fe 1cbf 18bc aa3c b14e 17bf 5c7d f73c

fc.4.bias f4 [3]
-0.3864774 0.27341545 0.21744843
00000000: 5ee0 c5be 1cfd 8b3e cdaa 5e3e
