checkpoints/ddqn_generalization.pth (torch, 688821 bytes, 8 tensors)

fc.0.weight f4 [512, 12]
0.2022837 -0.30526194 -0.14011595 -0.2418715 0.19539645 0.19832984 0.07671639 0.3261837
0.2478898 0.06279168 -0.109953344 0.19416264 0.19090243 0.018609172 0.39157137 0.35323417
-0.043694943 0.34024668 0.40563095 0.19653608 0.8891449 0.37338227 -0.1006754 -0.5412562
0.3062343 0.08612827 -0.17369987 -0.42553148 0.072839975 0.030238345 0.22898434 -0.22747596
0.4711884 0.60585773 -0.4487537 0.18481296 -1.235649 0.036934968 0.087289914 0.25530916
-1.4167832 -2.3664722 0.1464822 -0.23562728 0.23043355 0.5295309 0.6148025 0.26202613
-0.04800862 0.026729293 0.1506403 0.41783255 0.47846508 -0.15190083 -0.1315792 -0.0612299
-0.11091689 0.9279191 -0.19338907 -0.43740773 0.042501878 0.34902543 -0.2310079 0.26651466
-0.42892608 0.24129544 0.1920006 0.034092218 -0.8541808 -0.5482162 -0.06841386 -0.07348367
0.22075638 -0.38369265 0.35910904 0.40551528 0.06285695 0.10912165 0.10552393 0.071025826
-0.38066384 -0.32380384 0.1591281 -0.0882602 -0.122715406 -0.012683537 0.25327614 -0.10482891
-0.33663663 -0.51326114 -1.187325 -0.14486009 0.008351747 -1.0887502 -0.41241404 0.018112293
0.035130214 0.3317258 0.1599017 -0.16849557 -0.07358549 -0.31430635 0.1251375 -0.53851277
-0.03699482 0.06562343 0.14793368 0.30629426 0.037399307 -0.31479746 -0.014094173 -0.003266701
0.2858209 0.12321137 0.26268405 0.08958888 -0.16234165 1.1687152 0.026237419 -0.13947181
-0.20448335 -0.002794652 -0.08814544 0.33346242 0.14366812 0.057061456 -0.13781154 -0.47088093
1.3450971 0.35578573 -0.29346496 -0.09675962 -1.0458314 -0.04047729 -0.07258295 0.14099634
0.092243284 -0.026895668 0.12404897 0.025318088 -0.07590361 0.023386516 -0.4241104 0.050835837
0.28507254 0.065969184 -0.11924699 -0.10691322 0.18767141 -0.2155828 -0.50497365 0.057110965
0.16998167 0.41853717 -0.18676274 -0.107392564 -0.41888848 -0.19287045 0.22519508 0.03779808
0.35366547 0.082623206 -0.062254872 -0.30943444 -0.019979464 -1.0428853 0.0224584 0.065396644
-0.1664917 0.18576205 -0.20311624 0.28247902 0.09780576 -0.22237334 0.19182463 0.20548329
-0.22796695 -0.24559891 -0.18762879 -0.07393145 -0.103727974 -0.30531824 -0.058324672 0.1469785
-0.0562676 0.08642114 -0.16132468 0.2265684 0.21373957 -0.31534368 -0.16971388 0.04027823
0.0013102281 -0.058815796 0.06913751 -0.44688407 0.36886987 -0.04456696 -0.15970553 -0.33488846
-0.587667 -0.31721953 -0.15396638 0.012785287 -0.41515574 -0.7378175 -0.17521334 0.22732098
0.15965942 0.16747142 0.06775401 -0.47068527 0.031466424 -0.53945124 0.5220132 -0.0340509
-0.09192172 -0.30877316 0.18471588 0.16793922 -0.074078865 0.07630554 0.16100623 0.071432695
0.0037337714 -0.6484053 -0.2480066 0.10905542 -0.07718715 0.096918285 0.19556767 -0.2106965
0.19698255 -0.17895767 0.17475921 0.058900528 0.5832878 -0.10989477 -0.41389802 -0.1757748
-0.21600248 -0.05972169 -0.24068864 -0.25249997 -0.19586581 -0.0695688 -0.0991319 0.024789676
-0.16321434 0.11332458 -0.1552387 -0.17729098 0.14343408 -0.45982113 -0.038464878 -0.14116706
00000000: 7523 4f3e 4b4b 9cbe 8e7a 0fbe 2aad 77be
00000010: 0216 483e fa16 4b3e 7c1d 9d3d 8d01 a73e
00000020: d3d6 7d3e ed98 803d 382f e1bd 92d2 463e
00000030: ed7b 433e 4372 983c 0b7c c83e 1cdb b43e
00000040: 78f9 32bd d034 ae3e dcae cf3e c140 493e
00000050: 009f 633f f62b bf3e e72e cebd c48f 0abf
00000060: beca 9c3e 0564 b03d 61de 31be 43df d9be
00000070: 202d 953d 68b6 f73c df7a 6a3e 75ef 68be
00000080: 9b3f f13e 7e19 1b3f 0cc3 e5be 9c3f 3d3e
00000090: bf29 9ebf 1f49 173d 0ec5 b23d e2b7 823e
000000a0: 2759 b5bf 4874 17c0 6eff 153e 4748 71be
000000b0: c6f6 6b3e 568f 073f b263 1d3f 4a28 863e
000000c0: b0a4 44bd 64f7 da3c 7341 1a3e 26ee d53e
000000d0: 60f9 f43e e48b 1bbe b3bc 06be 34cc 7abd
000000e0: 6528 e3bd 1b8c 6d3f c907 46be e8f3 dfbe
000000f0: 7316 2e3d 76b3 b23e 568d 6cbe 9c74 883e
00000100: 339c dbbe 2716 773e ce9b 443e 48a4 0b3d
00000110: 98ab 5abf e657 0cbf 911c 8cbd 9b7e 96bd
00000120: f60d 623e 5d73 c4be 24dd b73e b39f cf3e
00000130: 25bb 803d 2c7b df3d ee1c d83d fd75 913d
00000140: 5fe6 c2be 9ec9 a5be 7af2 223e c4c1 b4bd
00000150: 3752 fbbd 9cce 4fbc 69ad 813e 8ab0 d6bd
00000160: a35b acbe 1565 03bf 44fa 97bf 3456 14be
00000170: c4d5 083c 2b5c 8bbf ef27 d3be 3b60 943c
00000180: b3e4 0f3d f7d7 a93e 45bd 233e 1a8a 2cbe
00000190: fdb3 96bd c3ec a0be 0b24 003e f9db 09bf
000001a0: e187 17bd 9465 863d ed7b 173e 9ad2 9c3e
000001b0: 0430 193d 222d a1be 3feb 66bc 2616 56bb
000001c0: 1e57 923e 3e56 fc3d 867e 863e 607a b73d
000001d0: e43c 26be 7698 953f dbef d63c b3d1 0ebe
000001e0: 1564 51be 7b26 37bb 9985 b4bd 96bb aa3e
000001f0: bc1d 133e 46b9 693d 781e 0dbe 4e17 f1be
00000200: 242c ac3f 8c29 b63e 0a41 96be e829 c6bd
00000210: cedd 85bf 84cb 25bd 5fa6 94bd 5861 103e
00000220: 0cea bc3d 4e54 dcbc 630d fe3d e167 cf3c
00000230: 5a73 9bbd 1495 bf3c 0025 d9be 3d39 503d
00000240: 07f5 913e da1a 873d c437 f4bd 51f5 dabd
00000250: ef2c 403e bdc1 5cbe f445 01bf 30ed 693d
00000260: ad0f 2e3e 814a d63e bb3e 3fbe a2f0 dbbd
00000270: 8d78 d6be d57f 45be 8a99 663e 29d2 1a3d
00000280: a413 b53e 5b36 a93d f7fe 7ebd 316e 9ebe
00000290: f9ab a3bc 447d 85bf aefa b73c adee 853d
000002a0: cd7c 2abe 6838 3e3e b4fd 4fbe 17a1 903e
000002b0: 634e c83d d6b5 63be ad6d 443e 366a 523e
000002c0: 2b70 69be 487e 7bbe c321 40be 5f69 97bd
000002d0: 556f d4bd ac52 9cbe dae5 6ebd 8881 163e
000002e0: db78 66bd 91fd b03d 4c32 25be 8c01 683e
000002f0: 8cde 5a3e ba74 a1be 7ac9 2dbe c9fa 243d
00000300: f6bb ab3a d5e8 70bd f897 8d3d fdcd e4be
00000310: 83dc bc3e d88b 36bd d989 23be 8076 abbe
00000320: 5871 16bf 996a a2be 5da9 1dbe 6179 513c
00000330: 4b8f d4be 9ce1 3cbf 206b 33be d5c6 683e
00000340: c27d 233e a17d 2b3e 9dc2 8a3d a9fd f0be
00000350: f0e2 003d 7a19 0abf a8a2 053f f578 0bbd
00000360: 7441 bcbd 8417 9ebe 2926 3d3e 42f8 2b3e
00000370: a9b6 97bd 1446 9c3d d1de 243e 4e4b 923d
00000380: 4ab2 743b e4fd 25bf 71f5 7dbe 7358 df3d
00000390: 4c14 9ebd 187d c63d e442 483e d3c0 57be
000003a0: cbb5 493e ae40 37be 14f4 323e ae41 713d
000003b0: 5952 153f 8210 e1bd 71ea d3be 4ffe 33be
000003c0: c12f 5dbe bb9e 74bd 1577 76be ad47 81be
000003d0: 0c91 48be 167a 8ebd aa05 cbbd b813 cb3c
000003e0: a921 27be b816 e83d e5f6 1ebe c48b 35be
000003f0: 62e0 123e ad6d ebbe 598d 1dbd 198e 10be

fc.0.bias f4 [512]
-0.1331001 0.3079669 -0.29423493 -0.060285553 0.07884235 0.08286448 -0.04250431 0.07203896
-0.03497811 0.1997946 -0.1535749 -0.09917031 0.38897127 -0.062144943 0.08624317 0.37922576
0.3295912 0.431262 -0.111770965 0.49227637 -0.2185229 -0.13982129 -0.052496724 0.41437033
0.37327802 -0.21876131 -0.6218895 -0.04212284 0.07284062 -0.03068422 0.29369828 -0.03991874
-0.11920034 0.35461676 0.22783677 0.13731366 0.009128142 -0.08322008 0.13014688 0.38699853
0.14597774 0.052706555 0.20115073 0.106263705 0.38450813 0.43513808 0.34759417 -0.04085477
0.43167564 -0.009349019 0.21072069 -0.19482446 -0.11524097 0.21345745 0.29290628 0.45204827
0.24541456 0.029659202 0.052462462 -0.10200561 -0.17254937 0.051917974 0.48825163 -0.149394
0.22529887 0.46909052 0.18333514 0.0153276995 -0.12621875 -0.08491883 0.3078934 0.40712422
0.10738101 -0.16935965 -0.030366387 -0.20681705 0.40790585 0.52460796 0.27368277 -0.13814732
-0.32189867 0.019567074 -0.3517304 -0.27076638 0.17805459 0.064670175 -0.15199928 -0.3013187
0.08768317 0.14234063 -0.16503932 -0.28418517 0.011328605 -0.13802826 -0.11614401 -0.075318135
-0.013326577 0.13442378 0.29160443 0.069679394 0.026045099 0.23798116 0.024082039 0.26242432
0.69980365 -0.06345074 -0.17408454 -0.31552398 -0.1101439 -0.24526463 0.2261163 0.061807055
-0.08914804 -0.33300245 -0.1406104 0.37587467 -0.09210481 0.24940927 0.62873363 -0.20644446
0.5035947 -0.19923724 -0.21631025 0.04708783 0.40682214 0.11798988 0.05877826 0.4371331
0.18959694 0.39495525 0.42809683 0.19950703 0.121280506 -0.28530186 -0.048734732 -0.09087112
0.3068884 0.1140315 0.5638842 0.38735712 -0.23433416 -0.07089422 0.5808907 0.3171877
0.23443492 0.328245 0.17102934 0.32994938 0.29213694 0.18587746 -0.14502753 0.045031782
0.113560796 0.075459145 -0.1835042 0.1872912 -0.07152289 0.12034717 0.1337285 -0.0074978634
0.08170772 -0.34319547 0.12749937 -0.26344606 0.08311156 0.055403687 0.37648204 -0.15408541
0.019909166 -0.11060815 -0.0770262 -0.0995956 0.1844533 0.19625627 0.20731944 -0.027012309
-0.08912185 0.0272123 0.14726324 -0.26200145 0.17046005 0.28378782 0.38772595 0.25662267
0.37035012 0.50571376 0.32469308 0.45952374 -0.11519729 0.45056346 0.60001904 0.31959382
-0.08653249 0.041587546 0.36073613 0.030678105 -0.06793044 0.30222452 0.13648932 -0.033735596
0.04518203 0.09092554 0.16763172 0.10043369 -0.012981966 0.023588425 0.5481984 0.32023117
0.13380158 0.050211564 0.2514431 -0.26070225 -0.47498098 0.37284392 0.05174374 0.05847396
-0.1002156 0.09572404 -0.38895297 0.03733434 0.29786727 -0.005728905 -0.09545005 0.27988106
0.06264769 0.2991577 0.30305 0.57552475 0.3311479 -0.042321105 0.21348692 0.093860745
-0.17937204 0.30633447 0.23933712 -0.14885518 -0.072164595 -0.005453814 0.25122294 0.023238776
-0.13495748 0.018884514 0.026289502 0.3084244 0.44589 -0.024815852 -0.037164878 0.052397024
0.10934904 0.6459306 0.33266947 -0.35183713 0.18856406 -0.21307749 -0.067564085 -0.19962764
00000000: 654b 08be d6ad 9d3e f6a5 96be fced 76bd
00000010: 1978 a13d dab4 a93d 0019 2ebd 2a89 933d
00000020: 3545 0fbd f596 4c3e bd42 1dbe ce19 cbbd
00000030: 3e27 c73e b28b 7ebd 42a0 b03d e129 c23e
00000040: 2ec0 a83e 5fce dc3e 2de8 e4bd a60b fc3e
00000050: 78c4 5fbe 502d 0fbe ce06 57bd 5928 d43e
00000060: 4c1e bf3e f702 60be 2634 1fbf 0089 2cbd
00000070: 772d 953d 795d fbbc 9f5f 963e d581 23bd
00000080: 4f1f f4bd 5490 b53e 0b4e 693e f49b 0c3e
00000090: 348e 153c 4a6f aabd 3945 053e ac24 c63e
000000a0: 307b 153e d4e2 573d 75fa 4d3e c9a0 d93d
000000b0: 40de c43e 6bca de3e ddf7 b13e 5557 27bd
000000c0: 9704 dd3e a12c 19bc 2ac7 573e 1080 47be
000000d0: 7503 ecbd 9794 5a3e d0f7 953e df72 e73e
000000e0: f44d 7b3e dbf7 f23c e1e2 563d 51e8 d0bd
000000f0: c8b0 30be f1a7 543d 1efc f93e befa 18be
00000100: bfb4 663e a22c f03e 35bc 3b3e 0821 7b3c
00000110: 7d3f 01be ece9 adbd 34a4 9d3e 9672 d03e
00000120: 93ea db3d 9e6c 2dbe eec2 f8bc d9c7 53be
00000130: 09d9 d03e b54c 063f 2620 8c3e 7e76 0dbe
00000140: e7cf a4be 214b a03c 0216 b4be e4a1 8abe
00000150: f153 363e cc71 843d b3a5 1bbe 7246 9abe
00000160: 3c93 b33d bec1 113e 1100 29be b880 91be
00000170: 9d9b 393c 4857 0dbe e9dc edbd 6540 9abd
00000180: b757 5abc 63a6 093e 2d4d 953e 12b4 8e3d
00000190: 885c d53c 55b1 733e b247 c53c 7b5c 863e
000001a0: 5526 333f 76f2 81bd 3843 32be 5c8c a1be
000001b0: 2093 e1bd a726 7bbe 088b 673e 6529 7d3d
000001c0: 3f93 b6bd 4c7f aabe 2cfc 0fbe a572 c03e
000001d0: 72a1 bcbd 2565 7f3e b0f4 203f 2d66 53be
000001e0: 95eb 003f d904 4cbe 6f80 5dbe 2bdf 403d
000001f0: fe4a d03e aea4 f13d 79c1 703d e9cf df3e
00000200: b325 423e 9337 ca3e 822f db3e 924b 4c3e
00000210: ea61 f83d 1613 92be 129e 47bd a31a babd
00000220: 7a20 9d3e 5989 e93d b75a 103f ac53 c63e
00000230: 4bf5 6fbe fd30 91bd 41b5 143f 6d66 a23e
00000240: b50f 703e bb0f a83e 5122 2f3e 20ef a83e
00000250: f992 953e a956 3e3e 1982 14be 3f73 383d
00000260: 9092 e83d 538a 9a3d 86e8 3bbe 44c9 3f3e
00000270: 987a 92bd 9478 f63d 20f0 083e a3b0 f5bb
00000280: 6156 a73d 51b7 afbe 328f 023e 67e2 86be
00000290: 6536 aa3d faee 623d 41c2 c03e 91c8 1dbe
000002a0: 8c18 a33c 8786 e2bd eabf 9dbd c7f8 cbbd
000002b0: 53e1 3c3e 67f7 483e 8c4b 543e eb48 ddbc
000002c0: 8485 b6bd 54ec de3c 2dcc 163e 0e25 86be
000002d0: 148d 2e3e a34c 913e 0484 c63e 0c64 833e
000002e0: 889e bd3e 7576 013f 2c3e a63e b246 eb3e
000002f0: 8fec ebbd 41b0 e63e d99a 193f cda1 a33e
00000300: f237 b1bd b457 2a3d 68b2 b83e a650 fb3c
00000310: 1d1f 8bbd 2cbd 9a3e dbc3 0b3e 562e 0abd
00000320: cb10 393d 2b37 ba3d a6a7 2b3e 2eb0 cd3d
00000330: 50b2 54bc 833c c13c bb56 0c3f 57f5 a33e
00000340: 4803 093e a4aa 4d3d 26bd 803e c47a 85be
00000350: b530 f3be 66e5 be3e 3ef1 533d 6482 6f3d
00000360: d63d cdbd f70a c43d d824 c7be e5eb 183d
00000370: 0f82 983e 8ab9 bbbb 517b c3bd 924c 8f3e
00000380: 6f4d 803d 332b 993e 5f29 9b3e 9755 133f
00000390: 388c a93e e558 2dbd 519c 5a3e 103a c03d
000003a0: 4ead 37be dfd7 9c3e ca14 753e 7e6d 18be
000003b0: 08cb 93bd e8b5 b2bb 4ba0 803e 3f5f be3c
000003c0: 4b32 0abe b2b3 9a3c 155d d73c cee9 9d3e
000003d0: b24b e43e 9d4a cbbc 333a 18bd 439e 563d
000003e0: 64f2 df3d b55b 253f a753 aa3e ff23 b4be
000003f0: f016 413e fc30 5abe 0a5f 8abd 306b 4cbe

fc.2.weight f4 [256, 512]
-0.025885552 0.0040926733 0.033561103 -0.00530809 0.018906264 -0.0046070516 0.039433897 -0.03989246
0.028910942 -0.031550527 -0.026296532 -0.04223266 0.002166788 0.01845922 -0.036102097 -0.038283844
0.023784153 0.010279637 0.0038730297 -0.01556136 -0.01851335 0.009394224 0.026643658 0.013965064
-0.027027471 -0.026673088 -0.004091606 -0.01204791 0.022535881 0.017567115 -0.024321089 0.01056837
-0.0253166 -0.02507624 -0.022795862 0.03734682 -0.029077174 -0.02528053 0.038607623 -0.020910488
-0.012844497 -0.02273657 -0.020030478 0.029742697 0.0036481246 0.0039227763 -0.039953444 -0.024920795
0.012280364 -0.032112442 -0.024168931 -0.022802552 -0.019017808 -0.0005245897 0.029796425 -0.0033237322
-0.031642534 0.007846 0.046554916 0.013290961 0.0065026474 0.03750831 -0.023858555 -0.013566016
0.038781784 -0.0024290076 -0.021424968 -0.0004462431 -0.031086376 0.0036960205 -0.00077594485 -0.01861475
-0.0204922 0.035561256 -0.004336566 0.022569833 0.015372604 0.01021564 -0.040998816 -0.019289682
-0.031413496 0.018955057 0.028113216 -0.0047502955 -0.033077884 -0.031713188 0.009838707 -0.008396512
0.036703918 -0.035044186 0.021759134 0.01997989 0.0113015855 0.01727606 -0.0100681335 -0.04130471
0.018564306 -0.017610138 -0.022190811 0.003740693 -0.04205377 -0.02921455 0.04137728 0.00051715586
-0.039594486 0.033542495 0.031563774 0.022955729 -0.027528824 0.017132806 0.009963009 0.013872909
0.038874835 0.025185365 -0.006404746 -0.043963276 -0.007219328 0.03855453 0.007355543 -0.023064593
-0.04265145 -0.0075664385 0.03894438 0.02640952 0.0029323774 0.029116517 -0.048638172 0.0071495925
-0.020518556 -0.008705471 -0.0059024864 -0.0033382266 0.035023477 0.0068428507 -0.026365664 -0.0018717262
-0.036038008 -0.006215773 -2.1937822e-05 -0.02232602 0.01522261 0.029837208 -0.013232514 0.012520129
-0.022075985 0.00048469767 0.012890075 -0.040175088 -0.031128492 -0.014505715 0.025932282 -0.032004684
0.024955148 -0.028593605 0.0387423 -0.031424135 -0.04405662 -0.00042888828 -0.044614144 -0.03288427
-0.017558692 0.014136878 -0.038314395 0.019335518 -0.038580306 -0.014520564 0.014715672 -0.038735736
0.038749974 0.013439734 0.025442239 -0.016496567 -0.0057973797 0.026911488 0.042835873 -0.028975327
-0.036134988 0.031020297 -0.0019014357 -0.046697944 0.017087387 -0.034983125 0.03808984 -0.04881082
-0.035935696 -0.025382541 -0.036383986 -0.0013420305 0.032669827 0.033959355 0.03069293 0.0073058866
0.015359909 0.008436502 -0.015665181 -0.043818858 -0.009493331 -0.04393231 -0.0457563 -0.027472211
-0.031541213 -0.025272638 -0.008202032 -0.000104355364 -0.045227673 -0.03258834 0.040204175 -0.04170502
-0.023532974 -0.02221982 -0.015782231 0.00601631 0.00011278026 -0.013229777 -0.020639038 -0.038309503
-0.026093705 0.0045249425 -0.005600557 0.020511903 0.010992859 0.023721814 -0.027371299 0.026395941
-0.005361564 -0.026452297 -0.04240984 -0.038641132 0.030625343 -0.015175489 -0.01985062 0.041655205
-0.030292597 0.019616969 0.00034251268 -0.036463037 0.023634817 -0.03239953 0.037422728 -0.015283215
0.024837025 0.008412031 -0.005447145 -0.005265541 -0.03351386 0.011377956 0.00800349 0.035345152
-0.036935516 0.016904132 -0.029901354 0.018573988 0.032814328 0.02617122 0.010903108 -0.008938495
00000000: f00d d4bc d51b 863b 5e77 093d 7cef adbb
00000010: 4fe1 9a3c c0f6 96bb 7085 213d 4766 23bd
00000020: a4d6 ec3c 203b 01bd d36b d7bc 27fc 2cbd
00000030: ac00 0e3b ca37 973c cbdf 13bd 85cf 1cbd
00000040: fcd6 c23c ec6b 283c a8d2 7d3b 13f5 7ebc
00000050: 4fa9 97bc 3bea 193c cd43 da3c b9cd 643c
00000060: b768 ddbc 8581 dabc e112 86bb 9964 45bc
00000070: 2b9d b83c e9e8 8f3c 053d c7bc f526 2d3c
00000080: c264 cfbc b06c cdbc 63be babc fbf8 183d
00000090: 4133 eebc 1d19 cfbc 0723 1e3d 794c abbc
000000a0: ba71 52bc 0b42 babc f516 a4bc f5a6 f33c
000000b0: 6015 6f3b a28a 803b 39a6 23bd b226 ccbc
000000c0: 9433 493c 5688 03bd ecfd c5bc 6bcc babc
000000d0: 3ccb 9bbc 9e84 09ba a217 f43c f9d2 59bb
000000e0: 9a9b 01bd 828c 003c 5eb0 3e3d 55c2 593c
000000f0: 2914 d53b 50a2 193d 0473 c3bc ff43 5ebc
00000100: a6d9 1e3d fc2f 1fbb 6a83 afbc bcf5 e9b9
00000110: dba8 febc ef38 723b c768 4bba f67d 98bc
00000120: 42df a7bc aea8 113d c119 8ebb 5fe4 b83c
00000130: 60dd 7b3c 805f 273c 60ee 27bd 6505 9ebc
00000140: 70ab 00bd a347 9b3c b04d e63c 5ea8 9bbb
00000150: ad7c 07bd b0e5 01bd 8732 213c 8691 09bc
00000160: d956 163d 7e8a 0fbd 3640 b23c deac a33c
00000170: 492a 393c 8686 8d3c d0f4 24bc 212f 29bd
00000180: 2c14 983c 2343 90bc 81c9 b5bc 6a26 753b
00000190: 9340 2cbd 5a53 efbc 397b 293d be91 073a
000001a0: d42d 22bd db63 093d 0449 013d a70d bc3c
000001b0: 2184 e1bc 195a 8c3c e33b 233c 334b 633c
000001c0: 383b 1f3d 8a51 ce3c e7de d1bb d612 34bd
000001d0: 1d90 ecbb 5beb 1d3d c406 f13b f5f1 bcbc
000001e0: 49b3 2ebd e3ef f7bb 2484 1f3d c758 d83c
000001f0: 212d 403b c385 ee3c d238 47bd 2147 ea3b
00000200: 8816 a8bc 64a1 0ebc a569 c1bb 26c6 5abb
00000210: c774 0f3d fe39 e03b cefc d7bc b654 f5ba
00000220: 979c 13bd afad cbbb 1d07 b8b7 0fe5 b6bc
00000230: 4168 793c 296d f43c 30cd 58bc 3a21 4d3c
00000240: b2d8 b4bc 051f fe39 e530 533c a28e 24bd
00000250: 2e01 ffbc 61a9 6dbc f06f d43c 5817 03bd
00000260: bd6e cc3c 233d eabc 3fb0 1e3d 98b6 00bd
00000270: b774 34bd 69dc e0b9 52bd 36bd a8b1 06bd
00000280: 3fd7 8fbc 5d9e 673c 8eef 1cbd 8565 9e3c
00000290: 6206 1ebd a9e7 6dbc 001a 713c 5da9 1ebd
000002a0: 4bb8 1e3d 5432 5c3c 3e6c d03c cf23 87bc
000002b0: f2f7 bdbb 7b75 dc3c ab74 2f3d aa5d edbc
000002c0: 4802 14bd 471e fe3c 9839 f9ba 5846 3fbd
000002d0: d9fa 8b3c 774a 0fbd 1804 1c3d dbed 47bd
000002e0: 4f31 13bd 0cef cfbc 6007 15bd 12e7 afba
000002f0: ccd0 053d f718 0b3d bd6f fb3c 3866 ef3b
00000300: 21a8 7b3c 4139 0a3c 4454 80bc 677b 33bd
00000310: eb89 1bbc 5ef2 33bd f56a 3bbd 670d e1bc
00000320: 5c31 01bd 9008 cfbc d161 06bc 5cd9 dab8
00000330: a740 39bd 5a7b 05bd 22ad 243d e2d2 2abd
00000340: 39c8 c0bc 5706 b6bc bd49 81bc 7724 c53b
00000350: 7184 ec38 b5c1 58bc 3313 a9bc 6dea 1cbd
00000360: 77c2 d5bc f845 943b e184 b7bb 9408 a83c
00000370: 641b 343c 4054 c23c c639 e0bc 4d3c d83c
00000380: 0fb0 afbb 7db2 d8bc f1b5 2dbd 2a46 1ebd
00000390: 00e2 fa3c 9da2 78bc c49d a2bc a69e 2a3d
000003a0: 2e28 f8bc c4b3 a03c 4693 b339 445a 15bd
000003b0: ce9d c13c 5fb5 04bd 9348 193d 7366 7abc
000003c0: 0477 cb3c 9ed2 093c f77d b2bb 8f8a acbb
000003d0: d445 09bd 9b6a 3a3c 1221 033c 14c6 103d
000003e0: b249 17bd 897a 8a3c aff3 f4bc 7a28 983c
000003f0: 5168 063d 0765 d63c f3a2 323c c472 12bc

fc.2.bias f4 [256]
-0.008720679 0.11633767 0.3808545 0.111132264 0.038370587 -0.043646485 -0.057768103 0.04915615
0.022513457 -0.093910694 0.039931674 -0.044018123 0.011026709 0.07640662 0.05735141 0.12863135
0.11404967 0.10643627 0.0035282003 -0.0676447 -0.06729163 0.13229136 0.056918383 0.11160483
-0.014024661 -0.024973577 0.1221438 0.06363259 0.1049145 -0.009075222 0.021994546 -0.13040577
0.039171338 0.0063407077 0.13827743 -0.026619958 0.09434398 0.1553989 0.017703805 0.05410543
0.12876631 0.010571801 -0.02798239 -0.04509975 0.08982155 0.06721318 0.14744169 -0.031951927
0.13734241 0.12256408 0.07748181 0.09371575 -0.023680968 -0.031572927 -0.002213752 -0.0136136925
-0.0042708153 0.005409204 -0.10423948 0.2462666 0.040083256 0.28402784 0.0042927074 -0.009111571
-0.13211033 0.05654372 0.115464576 0.06534987 0.024486396 0.062303174 0.09461655 -0.012367835
0.058838688 0.14681894 -0.0061449264 0.16691622 0.09509342 0.22995016 -0.004657401 0.19648631
-0.015316041 -0.08938751 -0.061096936 -0.10614597 0.043719113 0.17226516 0.10493007 0.015572768
-0.0445971 0.37115365 0.0035305284 0.08937758 0.0915411 0.05951421 -0.018241502 0.11829769
0.39259535 0.073614 -0.00041200686 0.02004971 0.06608671 0.025564415 0.17362289 0.096998274
-0.014480583 0.06317048 0.01751274 0.04207765 -0.070294484 0.013164073 0.11044399 0.031438224
0.19605446 -0.07343546 0.028341567 0.13844872 0.058132865 -0.10645948 0.1701844 0.0007240533
-0.022039374 0.021196125 0.09724642 0.023846624 0.09504 0.12299105 -0.012899476 -0.0070281127
0.016848108 0.0064450633 0.00047956518 0.12411356 0.3073331 0.06955243 0.028237676 0.16581516
0.07254712 0.10328683 -0.004273042 -0.06403882 0.14228906 0.124892 0.16216265 0.10256252
-0.054071985 0.107262716 0.068281196 0.0034490395 0.08991411 0.116366215 0.039546408 0.038047206
0.04414642 -0.0770093 0.02101806 -0.031186294 -0.10126093 -0.038853735 0.020921052 0.16212995
0.023784792 -0.013450372 -0.017716246 0.23669198 -0.014705942 -0.047341175 0.035939775 0.03769928
0.3271951 -0.04307243 0.19185191 0.101535894 0.077918716 0.101706326 -0.054249026 -0.004267435
0.028149836 -0.022035286 -0.048066434 -0.03804407 0.03833273 0.010994184 -0.013232948 0.06191628
-0.00019220708 0.0011929865 -0.053995628 0.033679772 -0.005979772 0.1564465 0.11426713 0.0025789754
0.06525096 0.10705273 -0.014957854 0.22264034 -0.036704607 0.44338942 0.14588717 0.029076893
-0.030394437 0.05410685 0.21502937 0.022071693 0.11066556 -0.013331239 0.26827627 0.03335903
0.09771662 0.038440112 0.11849235 0.034100667 0.15133527 0.08444258 -0.022810757 0.020927474
0.03393117 0.07328478 -0.27527717 0.026236923 -0.048015025 -0.034195993 -0.062684916 0.117857516
0.024054589 -0.09129157 0.112491295 0.17435388 -0.21156135 0.04641218 0.11838345 -0.03224816
-0.017239204 0.12074227 0.15314971 0.30122218 0.09502317 0.1353137 0.07580917 -0.03934784
-0.00057863316 0.039443944 0.10494685 -0.06529625 0.046150897 0.08759877 0.16734068 0.20795979
-0.041736558 0.20131901 0.09762575 0.02609749 -0.022910286 0.10139375 -0.045639046 0.014819979
00000000: 2ee1 0ebc 7242 ee3d 5cff c23e 5099 e33d
00000010: 7a2a 1d3d a8c6 32bd 3f9e 6cbd f657 493d
00000020: 246e b83c 4054 c0bd 658f 233d 594c 34bd
00000030: 5fa9 343c 137b 9c3d 50e9 6a3d f0b7 033e
00000040: e092 e93d 42fb d93d 6139 673b 4e89 8abd
00000050: 32d0 89bd 6377 073e 4023 693d 1391 e43d
00000060: b1c7 65bc 6395 ccbc 8726 fa3d ce51 823d
00000070: 6add d63d 3db0 14bc e82d b43c 1789 05be
00000080: 2072 203d b6c5 cf3b 9998 0d3e 1912 dabc
00000090: 6b37 c13d e420 1f3e 9207 913c a89d 5d3d
000000a0: 51db 033e 5935 2d3c 533b e5bc 84ba 38bd
000000b0: 5cf4 b73d 10a7 893d f4fa 163e 06e0 02bd
000000c0: 7da3 0c3e e002 fb3d c8ae 9e3d 0bee bf3d
000000d0: 97fe c1bc 9d52 01bd 9814 11bb f70b 5fbc
000000e0: 32f2 8bbb b13f b13b 827b d5bd 502d 7c3e
000000f0: 572e 243d 196c 913e d7a9 8c3b b348 15bc
00000100: ee47 07be 639a 673d b178 ec3d 27d6 853d
00000110: b297 c83c 9d31 7f3d 52c6 c13d 76a2 4abc
00000120: d600 713d b457 163e 615b c9bb 16ec 2a3e
00000130: 57c0 c23d 0e78 6b3e 1c9d 98bb b533 493e
00000140: 22f0 7abc cd10 b7bd c840 7abd 0f63 d9bd
00000150: d012 333d 4766 303e 94e5 d63d ec24 7f3c
00000160: 73ab 36bd da07 be3e 7060 673b 980b b73d
00000170: e679 bb3d 2cc5 733d 346f 95bc 0f46 f23d
00000180: 4202 c93e f0c2 963d a002 d8b9 4a3f a43c
00000190: 7858 873d 776c d13c 33ca 313e 08a7 c63d
000001a0: f83f 6dbc 865f 813d e176 8f3c 9d59 2c3d
000001b0: 8ef6 8fbd 20ae 573c 7530 e23d 5ec5 003d
000001c0: 80c2 483e 5565 96bd 932c e83c 80c5 0d3e
000001d0: ba1c 6e3d 6e07 dabd d244 2e3e 65ce 3d3a
000001e0: eb8b b4bc 7fa3 ad3c 2229 c73d ff59 c33c
000001f0: 55a4 c23d bbe2 fb3d 5358 53bc 154c e6bb
00000200: 0b05 8a3c 1c31 d33b 266e fb39 402f fe3d
00000210: c45a 9d3e 8171 8e3d b352 e73c 73cb 293e
00000220: 9693 943d 0c88 d33d e004 8cbb c926 83bd
00000230: 39b4 113e 60c7 ff3d f70d 263e 4c0c d23d
00000240: 967a 5dbd 8eac db3d 03d7 8b3d 4809 623b
00000250: e424 b83d 6951 ee3d 6afb 213d 63d7 1b3d
00000260: e0d2 343d 0db7 9dbd 112e ac3c 667a ffbc
00000270: e461 cfbd 1825 1fbd a062 ab3c 6505 263e
00000280: 53d8 c23c f35e 5cbc a921 91bc 625f 723e
00000290: 31f1 70bc d2e8 41bd 9635 133d 8f6a 1a3d
000002a0: 1e86 a73e b76c 30bd d474 443e 0df2 cf3d
000002b0: d993 9f3d 684b d03d 3a34 5ebd d7d5 8bbb
000002c0: 7c9a e63c 5883 b4bc 4fe1 44bd 19d4 1bbd
000002d0: c802 1d3d f320 343c 02cf 58bc ed9b 7d3d
000002e0: 328b 49b9 fc5d 9c3a 852a 5dbd cdf3 093d
000002f0: f7f1 c3bb 8333 203e e304 ea3d 0704 293b
00000300: 4ca2 853d 763e db3d c911 75bc d4fb 633e
00000310: 9257 16bd f003 e33e 7263 153e aa32 ee3c
00000320: c1fd f8bc 259f 5d3d a930 5c3e b2cf b43c
00000330: a0a4 e23d 456b 5abc 825b 893e 7aa3 083d
00000340: a71f c83d 6173 1d3d 1eac f23d 24ad 0b3d
00000350: a2f7 1a3e 3bf0 ac3d a0dd babc 1870 ab3c
00000360: 69fb 0a3d 5516 963d 21f1 8cbe d1ee d63c
00000370: 67ab 44bd 1911 0cbd f360 80bd 485f f13d
00000380: 210e c53c 13f7 babd d661 e63d d389 323e
00000390: 8aa3 58be b31a 3e3d 0673 f23d a616 04bd
000003a0: 3b39 8dbc b947 f73d 47d3 1c3e cb39 9a3e
000003b0: 829b c23d ad8f 0a3e d741 9b3d 332b 21bd
000003c0: 6aaf 17ba f98f 213d 60ee d63d 0aba 85bd
000003d0: b908 3d3d fc66 b33d 5b5b 2b3e 69f3 543e
000003e0: f4f3 2abd 9226 4e3e 02f0 c73d 67ca d53c
000003f0: 5aae bbbc 87a7 cf3d 02f0 3abd 7fcf 723c

fc.4.weight f4 [128, 256]
-0.03791015 -2.1378222 0.39096174 -0.61108446 0.9815633 -0.031650305 -3.0211592 0.52202815
-0.011132359 0.82931304 0.5300619 -0.06418788 0.0434723 -0.6255038 0.4964072 -2.5306644
-0.69367576 -0.6759522 0.50119954 0.60326123 1.0066139 -0.622719 0.6786456 -0.6376545
0.42004034 0.029095713 -0.5539834 0.4377395 -0.60979915 0.034899067 -0.087132946 1.9685544
-0.0477435 0.7516347 -0.60470164 0.005999064 -0.55841124 -0.5915501 1.0609412 0.13824807
1.4711751 0.67115873 -0.032019928 0.057498008 0.7554459 0.79731005 0.5703488 -0.010724914
2.027 -1.9799354 0.6211121 0.6246222 0.49822724 0.029383942 0.07880336 -0.011732708
-2.1507463 0.53006643 0.86141044 -0.34995094 -0.4118401 0.5243764 0.03981445 0.6677533
-0.03984926 -2.0699375 -2.1064744 0.5275242 0.539838 1.0025887 -1.932662 0.028059872
-0.5889539 0.48268354 0.048300073 1.0040888 -1.5672103 -0.13181995 0.6817474 -0.21138477
0.60631377 0.7370456 0.15384346 0.7805019 -1.9076078 -0.5452567 0.29707992 0.8042622
1.0671842 0.7463458 1.089563 -0.6048587 0.6122354 0.40474194 0.46177274 -0.57953507
0.6481981 -0.6150692 0.031140698 0.056159984 -2.1802619 0.4973746 -0.16419576 -0.6450767
0.5944161 -0.6316223 -0.049245328 -0.7970064 0.924573 1.9840217 -1.8174889 -0.6814292
0.16429307 0.82499176 0.7869419 -0.58277756 -0.7329373 0.53849876 -2.5657377 -0.0053433552
0.9713018 -0.05438429 -1.7650371 -0.7486967 -0.86804175 0.47194725 0.54707384 0.8012307
0.61197156 0.79308337 0.37317473 0.61664575 0.64519703 0.78849983 0.48278457 0.8712912
-0.63489294 -0.63364244 -0.026208526 0.7957722 -0.60666215 0.6273579 0.4724282 0.4610252
0.5466753 0.4752575 -1.9857877 1.0143037 -0.6909992 -0.6157667 0.6169069 0.061164565
0.66430956 0.7463169 -4.8909335 -0.057221666 0.4345718 -0.001070523 -0.018213006 -0.71126443
-0.02422703 -0.93235266 0.021703983 -0.12945664 0.9064683 0.026999988 -0.7609085 0.39290828
0.54381216 0.028486803 0.013838155 -0.5809774 -1.7153178 -0.66050947 1.2096882 0.6046121
0.052813847 0.7809281 1.0297145 -0.03404583 0.7681946 0.013653186 0.7217898 -2.3131995
-1.145655 0.052294992 -0.1891345 -0.72989917 -0.04312185 0.117580526 -0.70719534 -2.2260308
-0.64331937 -0.6482291 -0.9581313 0.41777113 0.041423388 0.5984497 -0.6552646 -0.65884656
0.03224371 -1.7933651 -0.5281632 0.016030611 -0.6896824 -0.063086 0.62732524 0.0030645498
0.22452885 1.1268016 0.6322868 0.4484485 2.437277 0.082263395 0.016163645 0.043018676
-2.207674 0.4642394 -0.87960804 0.52056664 -0.027922796 0.75405294 1.3355457 0.060076196
-0.7531927 -0.18413268 -1.9315819 0.3308288 0.9436 -1.1206406 -0.6248894 0.0073888823
0.8046269 -0.5822115 -0.72717035 -0.00038097508 -0.64047545 -0.60040295 3.8800662 0.051780257
-0.05282488 0.6564193 0.6314304 0.16217656 0.57319707 -1.2839439 -1.1162465 0.47321203
-0.0014612002 -0.84516287 -0.5696278 0.14677714 0.041604534 0.5573396 0.9027848 0.5651651
00000000: ac47 1bbd 14d2 08c0 232c c83e 0870 1cbf
00000010: bc47 7b3f c0a3 01bd ac5a 41c0 a3a3 053f
00000020: 7f64 36bc dc4d 543f 23b2 073f ef74 83bd
00000030: 0310 323d 0421 20bf 1629 fe3e 68f6 21c0
00000040: bc94 31bf 340b 2dbf 9d4e 003f 546f 1a3f
00000050: b9d8 803f 836a 1fbf b8bb 2d3f 533d 23bf
00000060: 870f d73e 225a ee3c dbd1 0dbf 641f e03e
00000070: cc1b 1cbf 53f2 0e3d c272 b2bd 97f9 fb3f
00000080: b08e 43bd 226b 403f bacd 1abf cc93 c43b
00000090: 0af4 0ebf d46f 17bf eccc 873f e790 0d3e
000000a0: 774f bc3f 0fd1 2b3f 5427 03bd 0883 6b3d
000000b0: e764 413f 831c 4c3f 6102 123f 8db7 2fbc
000000c0: 5eba 0140 866e fdbf 3401 1f3f 3ee7 1f3f
000000d0: a417 ff3e 98b6 f03c a863 a13d 8b3a 40bc
000000e0: d4a5 09c0 6fb2 073f 6585 5c3f c52c b3be
000000f0: b5dc d2be 883d 063f 7a14 233d e1f1 2a3f
00000100: fa38 23bd db79 04c0 7ad0 06c0 d30b 073f
00000110: d332 0a3f d454 803f 7861 f7bf d1dd e53c
00000120: afc5 16bf 4c22 f73e 4cd6 453d fb85 803f
00000130: 599a c8bf cffb 06be ff86 2e3f 4075 58be
00000140: 6137 1b3f 05af 3c3f 2489 1d3e f9ce 473f
00000150: 7e2c f4bf f195 0bbf dc1a 983e 21e4 4d3f
00000160: 7e99 883f 8510 3f3f cd76 8b3f 05d8 1abf
00000170: 76bb 1c3f 563a cf3e 7a6d ec3e 695c 14bf
00000180: 50f0 253f 2d75 1dbf c71a ff3c 0308 663d
00000190: 6989 0bc0 e2a7 fe3e ef22 28be bf23 25bf
000001a0: a72b 183f 00b2 21bf 78b5 49bd 9d08 4cbf
000001b0: d1b0 6c3f 6cf4 fd3f 7aa3 e8bf 2572 2ebf
000001c0: 713c 283e a932 533f 0675 493f e930 15bf
000001d0: c7a1 3bbf 0edb 093f 0c35 24c0 5017 afbb
000001e0: 3ca7 783f 10c2 5ebd bcec e1bf 96aa 3fbf
000001f0: fc37 5ebf 12a3 f13e 080d 0c3f 751d 4d3f
00000200: 2baa 1c3f 8307 4b3f c210 bf3e 7fdc 1d3f
00000210: a22b 253f 20db 493f 8a2f f73e f10c 5f3f
00000220: 5888 22bf 6436 22bf 43b3 d6bc bab7 4b3f
00000230: 364e 1bbf 879a 203f 1ce2 f13e 7f0b ec3e
00000240: eaf2 0b3f f354 f33e 4b2e febf b4d4 813f
00000250: 53e5 30bf e3a2 1dbf 9ced 1d3f b287 7a3d
00000260: 3110 2a3f a00e 3f3f 8782 9cc0 4461 6abd
00000270: 3280 de3e cb50 8cba 7133 95bc 6d15 36bf
00000280: c477 c6bc aaae 6ebf 8dcc b13c 4890 04be
00000290: 4e0e 683f 142f dd3c e6ca 42bf 462b c93e
000002a0: 4637 0b3f 285d e93c 6eb9 623c efba 14bf
000002b0: 898f dbbf 2617 29bf 10d7 9a3f dcc7 1a3f
000002c0: 5553 583d e7ea 473f afcd 833f a473 0bbd
000002d0: 67a8 443f 9db1 5f3c 37c7 383f 760b 14c0
000002e0: d3a4 92bf 4633 563d 79ac 41be acda 3abf
000002f0: 89a0 30bd 0fce f03d c10a 35bf 4a77 0ec0
00000300: 94b0 24bf 58f2 25bf 1848 75bf 19e6 d53e
00000310: 92ab 293d 0034 193f 6cbf 27bf 2baa 28bf
00000320: fb11 043d fd8c e5bf b435 07bf a152 833c
00000330: 078f 30bf 3c33 81bd 6398 203f 9dd6 483b
00000340: e4ea 653e 093b 903f 8cdd 213f 0b9b e53e
00000350: 59fc 1b40 b679 a83d 9f69 843c 5a34 303d
00000360: 884a 0dc0 c9b0 ed3e fe2d 61bf db43 053f
00000370: 59be e4bc 9d09 413f 29f3 aa3f 7512 763d
00000380: 3dd1 40bf 478d 3cbe 133e f7bf 6462 a93e
00000390: c58f 713f 2771 8fbf c0f8 1fbf 701e f23b
000003a0: 07fc 4d3f d00b 15bf d627 3abf 9cbd c7b9
000003b0: 33f6 23bf 02b4 19bf 0153 7840 8917 543d
000003c0: e75e 58bd 180b 283f 6ca5 213f 9d11 263e
000003d0: 0bbd 123f 4658 a4bf 2ae1 8ebf d948 f23e
000003e0: be85 bfba 985c 58bf 21d3 11bf bf4c 163e
000003f0: 8469 2a3d cfad 0e3f e81c 673f a9ae 103f

fc.4.bias f4 [128]
0.3165056 0.036931176 -0.080172904 0.0123304315 0.1729267 -0.041232258 -0.090091534 0.022234023
0.18683259 0.170817 -0.16629554 0.23171556 0.13555409 -0.17398164 0.0779263 -0.0038779704
-0.19552618 0.19581775 -0.04582699 0.23340222 0.22082059 -0.18489994 -0.19010073 -0.17061026
0.011598771 0.13926266 0.09960398 0.26792723 -0.07991534 0.177825 -0.10803278 0.024346972
0.0016622894 -0.019898053 -0.17014168 -0.0220138 -0.17374498 0.07476613 -0.02743003 -0.00030995367
-0.16136773 0.2364329 0.19891915 0.16581176 -0.03804554 -0.16322428 0.08196509 -0.16068572
0.40226808 -0.07197552 -0.15893671 0.12824863 0.5559405 0.009550271 -0.026235815 -0.055573493
-0.15114838 -0.035120342 -0.16171099 0.43910438 0.24817844 -0.015819168 0.15327482 -0.15844545
0.09005046 -0.20887397 -0.07243022 -0.13800848 -0.2110538 -0.20666054 -0.008158847 0.23940487
-0.07315198 -0.117806256 0.23958781 0.017099606 0.22808142 0.23460063 -0.1171965 0.3055864
0.24461758 0.085273676 0.33449128 0.108300485 -0.042771563 0.30551046 -0.15426813 -0.049217116
-0.0048733326 0.06398593 0.12689726 0.15593852 -0.05411874 -0.14939617 0.20263866 0.114493765
0.13046443 0.15928368 0.13920884 0.099796005 -0.18260358 0.20216937 0.28711653 -0.1436229
-0.004905662 0.18875788 -0.11969035 0.14419371 -0.061343703 0.03343415 0.026823578 0.016323397
0.21158436 0.109580144 0.26312694 0.032828882 0.005006792 0.091162786 0.11604167 0.019413037
0.21244287 -0.18478021 0.23947786 0.23213054 0.18827511 0.041561436 0.23094817 -0.061076645
00000000: 060d a23e 2545 173d b131 a4bd 9405 4a3c
00000010: b213 313e 28e3 28bd e981 b8bd 2024 b63c
00000020: 0b51 3f3e a7ea 2e3e 6149 2abe d846 6d3e
00000030: b1ce 0a3e 3e28 32be d397 9f3d 8c25 7ebb
00000040: 0438 48be 7384 483e 15b5 3bbd fe00 6f3e
00000050: cb1e 623e 6956 3dbe c4a9 42be 75b4 2ebe
00000060: c608 3e3c df9a 0e3e 2cfd cb3d c22d 893e
00000070: a7aa a3bd c217 363e 4a40 ddbd 4d73 c73c
00000080: 2de1 d93a 3e01 a3bc 9f39 2ebe 4956 b4bc
00000090: 34ea 31be fc1e 993d f1b4 e0bc 4781 a2b9
000000a0: 953d 25be 771b 723e 76b1 4b3e 8fca 293e
000000b0: a4d5 1bbd 4424 27be 50dd a73d cc8a 24be
000000c0: 15f6 cd3e e767 93bd 4ec0 22be 9c53 033e
000000d0: 1e52 0e3f bd78 1c3c 7eec d6bc 08a1 63bd
000000e0: a4c6 1abe 59da 0fbd 9197 25be 4ad2 e03e
000000f0: 7d22 7e3e 3397 81bc 13f4 1c3e 863f 22be
00000100: 606c b83d 0fe3 55be 4c56 94bd 1852 0dbe
00000110: 7d1e 58be d29e 53be afac 05bc 8d26 753e
00000120: b5d0 95bd 6844 f1bd 8256 753e 7914 8c3c
00000130: 2d8e 693e 263b 703e b804 f0bd d275 9c3e
00000140: 087d 7a3e f7a3 ae3d 7142 ab3e a5cc dd3d
00000150: 3c31 2fbd de6b 9c3e 77f8 1dbe e397 49bd
00000160: 7ab0 9fbb 0e0b 833d 5bf1 013e 59ae 1f3e
00000170: 9dab 5dbd 4ffb 18be 8280 4f3e b57b ea3d
00000180: 7898 053e 431b 233e c38c 0e3e d961 cc3d
00000190: 6ffc 3abe 7d05 4f3e f000 933e e211 13be
000001a0: adbf a0bb bf49 413e 3720 f5bd 84a7 133e
000001b0: 8943 7bbd 3ff2 083d 1fbd db3c a5b8 853c
000001c0: 92a9 583e 8e6b e03d 93b8 863e 9477 063d
000001d0: 0410 a43b 8eb3 ba3d 41a7 ed3d 1708 9f3c
000001e0: a08a 593e 0637 3dbe af39 753e a1b3 6d3e
000001f0: 31cb 403e 533c 2a3d ad7d 6c3e 812b 7abd

fc.6.weight f4 [3, 128]
-3.4936955 0.042911995 -1.3156902 -2.2999785 0.5733918 -1.4731731 -1.4634037 -0.07771185
0.5569833 -0.46032354 -0.7109608 0.52651715 0.90415496 -1.2408528 -1.9938344 0.08331936
-1.2907854 0.7579095 0.02322009 0.6252311 0.38238 -0.77177477 -0.8303859 -0.9303008
0.07791532 0.6353195 -1.5958534 1.78806 -1.2481213 0.5416831 -1.0694512 -1.9553372
-3.482733 -1.5685929 -0.9417058 -0.038520087 -1.4922129 0.3203116 0.06911185 -0.0012148288
-1.027679 1.9960179 0.5752208 0.82322943 0.05752416 -1.1230501 2.1054494 -1.2634554
3.4650276 -0.9946002 -1.0068679 0.5275296 1.8423706 0.08310217 0.037631508 0.035047177
-1.0784706 -0.0019677721 -1.3773549 -3.127796 0.6390381 0.029653354 -2.5765204 -1.0483947
-2.3817492 -1.6426189 -1.2471979 -1.032946 -1.2757491 -0.85833126 0.034003515 -2.8496487
-1.0088704 -1.0138623 0.3721315 -0.020010509 0.48327816 0.49750012 -1.1287729 0.48749134
0.8505024 -1.6368637 -2.4505816 0.5041716 -0.08268285 0.4416758 -1.1123807 -0.0009929691
-2.2703526 -1.5856025 0.72349644 0.79524386 -1.6966908 -1.4025561 0.7005763 0.44724503
0.73065877 0.65429574 0.58680916 -1.3166494 -1.1559489 0.7013446 0.5695532 -1.3083946
0.3279882 0.56229955 -0.8579267 0.6330207 0.03947186 -1.6838185 -1.7038969 -1.6836528
0.08476225 -1.2953764 0.67854345 -0.35857442 -2.0784392 -1.0845459 0.6568182 -0.0016000924
0.5980146 -0.97213256 0.7769594 0.3563137 0.72534126 -0.0008125286 0.71873844 -0.0555762
-3.7252696 0.09189309 -0.24417159 -2.2281022 0.35040295 -1.6777976 -1.7185733 -0.05068231
0.6286564 -1.0971167 -0.81410754 0.6775257 1.7681936 -1.3956778 -2.9983623 -0.08298787
-1.9903207 0.5031448 0.079685666 0.5618106 0.8514863 -0.80415964 -0.99685585 -1.136078
-0.036209535 0.897767 -1.1404532 2.0651827 -1.5227468 0.82167774 -1.161589 -1.7438116
-2.5616739 -1.6923105 -1.1729647 0.07217432 -1.919206 0.8785733 0.6606351 0.08815034
-1.3439716 2.2132475 0.8634386 0.15787405 0.06629703 -1.3504738 0.7830748 -1.3448348
2.9110253 -2.2360804 -0.9456906 0.8322606 1.365256 0.025423238 -0.06784829 -0.0026474164
-1.3063055 0.05619077 -1.4112397 -2.074695 0.5555605 0.030946393 -2.3743598 -1.4038429
-2.5103068 -2.1547987 -1.3922644 -1.2926507 -1.4515358 -1.7482146 -0.04901266 -1.312523
-1.2051257 -1.279628 0.832775 0.0070567857 0.46243963 0.13901675 -2.026434 0.6247771
0.6022089 -1.8730286 -2.4819038 0.7842511 -0.01109391 0.5935055 -2.093319 -0.017738039
-2.7818816 -1.4476167 0.6672868 0.34536427 -1.7544634 -1.3800918 0.46700835 0.8206175
0.6301362 0.5102111 0.7178995 -2.2572923 -1.5500305 0.2992133 0.29849002 -2.023828
0.6954065 0.7419469 -1.1384665 0.8298287 0.065628156 -1.8995609 -1.6145828 -1.9149013
-1.4504384 -1.579003 0.57654876 0.5942105 -2.7757213 -1.06057 0.69280124 -0.036923725
0.49087194 -0.90667784 0.44956148 0.8562459 0.5507407 -0.06010217 0.49695697 -0.011262852
00000000: b598 5fc0 7dc4 2f3d 8968 a8bf d932 13c0
00000010: cec9 123f f090 bcbf d050 bbbf 6427 9fbd
00000020: 7596 0e3f 87af ebbe 8701 36bf d4c9 063f
00000030: b376 673f 44d4 9ebf f735 ffbf 57a3 aa3d
00000040: 7538 a5bf 5b06 423f 0f38 be3c 250f 203f
00000050: 50c7 c33e 0893 45bf 2c94 54bf 3128 6ebf
00000060: 1192 9f3d 4ca4 223f ed44 ccbf 26df e43f
00000070: 70c2 9fbf beab 0a3f c7e3 88bf 7d48 fabf
00000080: 19e5 5ec0 a7c7 c8bf a213 71bf 3dc7 1dbd
00000090: d500 bfbf e2ff a33e 838a 8d3d e43a 9fba
000000a0: fc8a 83bf 847d ff3f ac41 133f 2abf 523f
000000b0: 749e 6b3d 1bc0 8fbf afbf 0640 e8b8 a1bf
000000c0: 03c3 5d40 1e9e 7ebf 0ce1 80bf 2e0c 073f
000000d0: cdd2 eb3f 7831 aa3d 7f23 1a3d a18d 0f3d
000000e0: 530b 8abf bdf5 00bb 2a4d b0bf cf2d 48c0
000000f0: 0098 233f 97eb f23c b6e5 24c0 cc31 86bf
00000100: 946e 18c0 5641 d2bf 2ea4 9fbf 9337 84bf
00000110: bf4b a3bf 99bb 5bbf 4547 0b3d a560 36c0
00000120: aa22 81bf 3dc6 81bf 0588 be3e 14ed a3bc
00000130: 3c70 f73e 56b8 fe3e a17b 90bf 7798 f93e
00000140: 86ba 593f c084 d1bf 54d6 1cc0 6411 013f
00000150: a055 a9bd 5523 e23e 7e62 8ebf 8426 82ba
00000160: 754d 11c0 06f5 cabf 1037 393f 1a95 4b3f
00000170: 2a2d d9bf f586 b3bf f858 333f 4dfd e43e
00000180: 740c 3b3f ed7f 273f 2039 163f f887 a8bf
00000190: 22f6 93bf 528b 333f 3dce 113f 7979 a7bf
000001a0: 12ee a73e ddf2 0f3f 16a1 5bbf a50d 223f
000001b0: 3fad 213d 5d87 d7bf 4b19 dabf ef81 d7bf
000001c0: d597 ad3d e5ce a5bf 06b5 2d3f 1197 b7be
000001d0: 2605 05c0 66d2 8abf 3d25 283f 31ba d1ba
000001e0: 7c17 193f aedd 78bf d0e6 463f c06e b63e
000001f0: f7af 393f dfff 54ba 3eff 373f dfa3 63bd
00000200: d16a 6ec0 7232 bc3d 1e08 7abe 3a99 0ec0
00000210: 0468 b33e 12c2 d6bf 36fa dbbf 4198 4fbd
00000220: a0ef 203f 526e 8cbf 5a69 50bf 5372 2d3f
00000230: 2b54 e23f 92a5 b2bf 2be5 3fc0 8bf5 a9bd
00000240: d4c2 febf 19ce 003f 3d32 a33d d2d2 0f3f
00000250: 02fb 593f 68dd 4dbf f231 7fbf 016b 91bf
00000260: 7350 14bd 0fd4 653f 5ffa 91bf f42b 0440
00000270: 5ee9 c2bf 7959 523f f3ae 94bf 3835 dfbf
00000280: 77f2 23c0 a19d d8bf b523 96bf 21d0 933d
00000290: 8ba8 f5bf 2eea 603f 621f 293f 2a88 b43d
000002a0: 4307 acbf d9a5 0d40 500a 5d3f bca9 213e
000002b0: bdc6 873d 53dc acbf 9777 483f 8c23 acbf
000002c0: 3d4e 3a40 f11b 0fc0 c718 72bf 080f 553f
000002d0: b5c0 ae3f 6544 d03c 0bf4 8abd 4780 2dbb
000002e0: 0535 a7bf 4b28 663d 81a3 b4bf cec7 04c0
000002f0: 3739 0e3f 4a83 fd3c 83f5 17c0 20b1 b3bf
00000300: dea8 20c0 39e8 09c0 b835 b2bf 9475 a5bf
00000310: edcb b9bf 7fc5 dfbf 80c1 48bd c100 a8bf
00000320: 8f41 9abf daca a3bf be30 553f 9c3c e73b
00000330: e3c4 ec3e 685a 0e3e 18b1 01c0 64f1 1f3f
00000340: 5d2a 1a3f 67bf efbf 83d7 1ec0 aec4 483f
00000350: 3bc3 35bc faef 173f f0f8 05c0 5d4f 91bc
00000360: 590a 32c0 814b b9bf 4fd3 2a3f 96d3 b03e
00000370: 4292 e0bf d9a6 b0bf b81b ef3e fd13 523f
00000380: 9b50 213f 329d 023f 43c8 373f 7a77 10c0
00000390: 6667 c6bf 7c32 993e afd3 983e 6686 01c0
000003a0: 2906 323f 3bf0 3d3f 45b9 91bf a76f 543f
000003b0: 0e68 863d d024 f3bf a6aa cebf 7c1b f5bf
000003c0: f7a7 b9bf c51c cabf b398 133f 2e1e 183f
000003d0: 6ba5 31c0 c2c0 87bf 6c5b 313f 553d 17bd
000003e0: 9153 fb3e 0a1c 68bf ec2c e63e ee32 5b3f
000003f0: 58fd 0c3f b12d 76bd 2571 fe3e d387 38bc

fc.6.bias f4 [3]
-0.27170265 0.01825239 0.25292602
00000000: 9c1c 8bbe 0986 953c 857f 813e
